data_demos/b1_models/z_r12r13_21_2021.06.26_held_in_calib.nwb_FFNN_20240604_092642.pt (torch, 289561 bytes, 18 tensors)

layers.0.weight f4 [64, 170]
000000 e1 51 5b be a3 71 8c be 61 6d 8b bd 4b b8 fb bd
       -0.21417953 -0.27430448 -0.06807972 -0.122910105
000010 94 97 03 be cd 59 59 be 81 cf bd be d3 73 ae bd
       -0.12850791 -0.21225663 -0.37072375 -0.085181855
000020 7e ff d8 bc de 4e 40 bf e4 bc 57 be f7 be f1 bd
       -0.026489016 -0.7512034 -0.2106815 -0.11804002
000030 bd 24 9c bb 20 f8 23 bd 87 62 f5 bd 3b 3c 6d 3b
       -0.0047651217 -0.040031552 -0.11981683 0.003619923
000040 c2 ee 11 3e 7a b0 04 be 3a e4 2b be 60 b6 05 3e
       0.14251235 -0.12957945 -0.1678628 0.13057852
000050 a1 59 48 3e 4b 64 d3 3c 1e 3f 5b be a7 ef a9 3d
       0.1956544 0.02580466 -0.21410796 0.08297663
000060 c0 b8 50 3e 6d d3 1f bd 25 09 9a 3d bb 1f b9 3d
       0.20382977 -0.03901999 0.075212754 0.09039255
000070 c5 f7 f4 3d 50 09 ac 3e 51 7f f0 bc 91 18 02 3e
       0.11961321 0.33600855 -0.029357584 0.12704684
000080 1d 90 61 3d 0c 60 ab be aa 6d 7d bd b0 c4 24 3d
       0.055069078 -0.33471715 -0.061872162 0.04022664
000090 69 00 3c bc 2d 1d 58 be c0 11 9d be 5b d5 a8 be
       -0.011474707 -0.2110488 -0.30677605 -0.32975277
0000a0 23 8f a9 3d c5 51 1a be 8f e8 3d bd ed da 0d be
       0.08279254 -0.15070255 -0.046364363 -0.13853045
0000b0 b3 d0 c2 bd 53 c6 a3 be e4 07 11 3d b4 06 dd be
       -0.095124625 -0.31987247 0.035407916 -0.43169177
0000c0 39 c5 88 3d fd 8e 76 3e 45 fa d3 3d 68 fc 7a be
       0.06678242 0.24077983 0.103504695 -0.24510348
0000d0 26 ef a6 bc 89 8c be bd 71 ef fd 3d 28 bc 63 be
       -0.020377707 -0.09304149 0.123991854 -0.22239745
0000e0 6a 8c 12 be 8f b5 07 3d 62 41 d4 bd 25 e3 c3 be
       -0.14311376 0.033132132 -0.10364033 -0.38259235
0000f0 24 50 45 3c 3b 08 aa bd 58 14 02 be a0 83 cb be
       0.012043033 -0.08302351 -0.12703073 -0.3974886
000100 56 60 56 3d 50 9a c9 3c 40 26 80 3d 6e 66 45 be
       0.052337967 0.024609715 0.062572956 -0.19277355
000110 4e c7 96 bb 84 cf 24 bc ea 00 98 bb d7 03 0d be
       -0.0046013957 -0.010059241 -0.004638781 -0.13770996
000120 9d 82 9d bc d8 f3 81 3d d8 fe b2 bb b8 77 27 bc
       -0.01922732 0.06345338 -0.0054625086 -0.010221414
000130 3a c8 1e 3e dd ba 06 3e ed 3f d2 bd 9d 56 15 bd
       0.15506068 0.1315722 -0.10266099 -0.036459554
000140 2d 6a d0 3d 65 e0 b1 3d e8 b8 29 3d 6f 61 3d 3e
       0.101765014 0.08685378 0.041436106 0.18494199
000150 03 eb 3e 3e 2a f9 8e 3d 1a 12 93 bd 3d 46 6d 3e
       0.18644337 0.06981118 -0.07181187 0.23171325
000160 cf 3c b5 bd 02 ae 31 be fa 07 9e 3d 14 73 46 3e
       -0.08849489 -0.17351535 0.07716365 0.19379836
000170 dc e3 50 be 5e 05 2d 3d b9 ee 5e be 1e 5c 41 3e
       -0.20399421 0.042241447 -0.21770753 0.18882796
000180 0e 56 fa be 92 2b 01 bd 79 f9 aa be df 26 b9 3d
       -0.4889378 -0.031535693 -0.33393458 0.09040617
000190 1b d5 12 bf b0 ef 79 bb ef 48 b6 bd a0 d5 47 3e
       -0.57356423 -0.003813725 -0.0890063 0.19515085
0001a0 48 5f 3e be 5d 63 46 3e bd 12 a2 bd a4 3a fd bc
       -0.18591034 0.19373842 -0.0791373 -0.030911751
0001b0 00 bd 15 3e 47 8d 3d bd 8c 13 b8 3e ba 25 c3 3e
       0.14622879 -0.04627731 0.35952413 0.3811472
0001c0 eb ed 76 3e a9 99 c4 bd 33 16 c4 3e af 45 7f 3e
       0.24114196 -0.09599621 0.38298187 0.24928926
0001d0 5f d4 a5 3d 3a 3e 9e bd 8a 80 51 3e f3 ac 60 3e
       0.08097147 -0.077267125 0.2045919 0.21940975
0001e0 2a 61 b5 bd f1 9e 47 bd c7 6d 4e be 31 e1 53 be
       -0.08856423 -0.048735563 -0.20159064 -0.20691372
0001f0 5f 68 3b bd 56 5e 54 3d e9 64 ac 3c 27 22 62 3e
       -0.045753833 0.05184778 0.021044211 0.2208334
000200 db 2a 19 be 90 29 a5 be 6d 47 47 bb b5 fa eb 3d
       -0.14957754 -0.32258272 -0.0030407563 0.11522428
000210 19 d7 2a 3d db 16 4f 3d 6c 28 04 be ed ec d0 bb
       0.04170904 0.050558906 -0.12906045 -0.0063759
000220 23 55 df ba 10 b2 10 bb a6 e5 ae 3d 73 55 11 bd
       -0.0017038923 -0.002207879 0.08539896 -0.03548188
000230 48 f0 d0 3d 1b 38 f8 3d 7b 3b b5 3e 0c 99 72 3d
       0.1020208 0.12120076 0.35396942 0.059227988
000240 74 5e 59 be f2 41 4d bd 89 94 3b 3e bf 96 16 3b
       -0.21227437 -0.05011172 0.1831838 0.0022978035
000250 8c 7e 06 be 24 76 95 3d d0 ab ba 3d 0d 5c 07 bc
       -0.13134211 0.07297924 0.09114802 -0.008261693
000260 2f 98 41 bd 96 ba 3d be c2 77 7a 3d 0a 7d 44 3d
       -0.047264274 -0.18528208 0.061149366 0.04797081
000270 bd 48 2a 3e ae ea 22 3e bc 86 8b 3b e0 55 39 3c
       0.1662931 0.15909836 0.004258005 0.011311978
000280 a8 dd 8e 3d 2c 4b 3f be 49 5b d7 bd 67 77 99 be
       0.06975871 -0.1868102 -0.10515458 -0.2997391
000290 99 af 9b 3d 25 04 0f bb 20 6d 21 3e 1b 67 9e be
       0.07601852 -0.0021822539 0.15764284 -0.30938038
0002a0 dc 1a 3d bc 3f d0 d9 3d 94 0c 1d 3f a4 39 4f 3f
       -0.011542048 0.10635423 0.6134732 0.8094733
0002b0 06 9b 85 3e 60 7f db 3e 4f 22 07 3f e9 b7 d3 bd
       0.26094836 0.42870617 0.52786726 -0.103378125
0002c0 22 2a 42 3f cf 8c bc 3e 8a 14 fd be d2 6c 2d bf
       0.7584554 0.36826178 -0.49429733 -0.6774417
0002d0 f5 6d f1 3e 87 a1 98 bd b2 45 3f bf 02 e0 2a bf
       0.47154203 -0.07452684 -0.7471572 -0.6674806
0002e0 0a b3 67 3e 0c 1f a0 3e 04 55 b8 be 62 b1 2a bd
       0.22626892 0.31273687 -0.36002362 -0.04167307
0002f0 c0 e4 03 bf 0a eb 80 be 11 40 74 be 39 78 03 3e
       -0.5152092 -0.2517932 -0.23852564 0.1283883
000300 9f 60 71 bf f5 9f 2a bf 38 dd 0d be e1 ef 73 bc
       -0.9428806 -0.66650325 -0.1385392 -0.014888735
000310 f4 f9 4c bf 07 23 c5 be e0 10 0f 3e 54 0b 0a 3f
       -0.800689 -0.38503286 0.13971281 0.53923535
000320 93 3e 7a bf ad 57 c0 be ed 7d 0c bf ea 1d 70 bf
       -0.9775173 -0.3756689 -0.5487965 -0.93795645
000330 4b bd 98 3d cc 82 f6 3e e1 be bb be 55 13 fa be
       0.0745798 0.48146665 -0.36669067 -0.48842874
000340 d0 aa 87 be 6d a7 3b be 62 9c 20 bf 03 ab ba bf
       -0.26497507 -0.18325587 -0.6273862 -1.4583439
000350 90 1f 0b bf 90 ce 1e be b0 28 1f bf 58 14 90 bf
       -0.54345036 -0.15508485 -0.6217146 -1.1256208
000360 8f 36 14 bf 4c e4 2c bf 2c 30 43 bf ba f4 30 bf
       -0.5789575 -0.67535853 -0.7624538 -0.69123423
000370 cb 2e 7c be c7 10 10 bf c1 74 72 bf c4 8f 18 bf
       -0.24627225 -0.562756 -0.947094 -0.5959437
000380 c0 65 2b bf 93 4a 1b bf 8c 24 55 bf 0c 3e aa be
       -0.66952133 -0.60660666 -0.8325889 -0.33250463
000390 78 4d 63 be b7 bb 14 bf 86 da 50 bf 11 d6 c2 bd
       -0.2219752 -0.5809893 -0.8158344 -0.09513486
0003a0 9b 48 99 be ec c0 8e bd 4a b3 f8 bd fb 1a a0 3e
       -0.29938206 -0.06970391 -0.12143572 0.31270584
0003b0 f7 50 07 bf 50 41 0d be f1 6c 10 bf c8 5c 46 be
       -0.5285792 -0.13794446 -0.5641623 -0.1937133
0003c0 f7 b9 9c bc e4 70 6c 3e 2b 66 90 3e d3 5e af 3e
       -0.019131644 0.2308994 0.28202948 0.34252033
0003d0 1d 8c 96 3d 04 f4 a5 3d c3 40 a5 3e 2d 8c b9 3d
       0.07350943 0.08103183 0.32275972 0.090599395
0003e0 b0 56 8a 3e b7 ce 64 3e c3 7e ba 3e 51 cf 6a 3e
       0.27019262 0.2234448 0.36424837 0.22930647
0003f0 26 5a 81 3e e5 db ad 3e 74 03 c0 3e 91 0a c8 3e
       0.2526409 0.3395683 0.37502635 0.39070562

layers.0.bias f4 [64]
000000 67 2a 86 bf 0f 91 2b 40 e2 08 31 3f 18 b4 b5 bf
       -1.048169 2.6807287 0.6915418 -1.4195585
000010 95 bd 4f 3f 62 92 e3 3f d1 b9 7b 3f 20 a2 08 be
       0.81148654 1.7779047 0.9833041 -0.13343096
000020 25 97 a7 3d 69 fc f0 3d 8a a6 fc 3e 94 13 eb 3e
       0.081831254 0.117668934 0.4934581 0.45913374
000030 6c 7f 65 3f 90 48 44 3f 3c 73 9b bd 7a e2 0c c0
       0.89647555 0.7667322 -0.075903386 -2.201323
000040 78 cc 90 3f ba b2 69 bf f4 67 e8 3f 34 f6 c2 3e
       1.1312399 -0.9128834 1.8156724 0.38078463
000050 14 a9 e9 be e7 42 01 40 55 55 6e 3f 90 24 d5 3e
       -0.4563681 2.0197084 0.93098956 0.41629457
000060 57 a2 76 bf 39 b7 8b 3f e2 20 d1 3c f9 24 1d 3f
       -0.9634146 1.091529 0.025528375 0.6138454
000070 43 cb 62 3f cd a3 bf 3e c1 ca 63 3f 26 79 1a be
       0.885914 0.37429658 0.8898125 -0.15085277
000080 c4 6d 46 3e bd c8 00 bf 14 a5 07 3f c3 12 fe 3e
       0.1937781 -0.503063 0.52986264 0.4962369
000090 de fc d0 3e 95 13 a1 3f 52 bd cd 3e e7 81 92 3f
       0.40817922 1.2584101 0.40183502 1.1445893
0000a0 20 56 88 3f 1b 29 20 c0 d6 b6 4f 3e a9 6e 71 3e
       1.0651283 -2.5025089 0.2028459 0.2357737
0000b0 22 0f 00 c0 5b c3 27 40 65 40 4d 3f 15 69 a0 3e
       -2.0009236 2.6212986 0.80176383 0.3133017
0000c0 c4 dd 8a 3f 56 d1 f5 3d af 80 a5 3f 79 a1 5a bf
       1.0848927 0.12002818 1.2929896 -0.8540264
0000d0 99 6a 47 3d 9c 90 20 c0 64 b3 e7 bf ac 76 a6 3f
       0.048685644 -2.5088263 -1.8101621 1.3004966
0000e0 96 9d cb be c6 61 bf 3f 9e bc dc 3e ad 97 d3 3e
       -0.39768666 1.4951713 0.43112653 0.41326657
0000f0 0f 98 12 3e ad 54 83 3f ac 4b 30 3f b2 a8 78 3f
       0.14315818 1.0260216 0.68865466 0.9713241

layers.1.weight f4 [64, 64]
000000 ba 5f 66 bb f6 82 b4 bc c8 82 2c be 07 f3 13 be
       -0.0035152272 -0.022035103 -0.16846764 -0.14448176
000010 85 83 8a bd aa 1c be bb f8 78 c9 bc 13 16 2d be
       -0.067633666 -0.005801757 -0.024593815 -0.16902952
000020 79 cd ad bd 9f 08 84 3d 06 c7 28 3d 7e a2 33 3e
       -0.084864564 0.06446957 0.04120543 0.17542455
000030 50 9e 25 bc e9 c9 0f be cc ca 92 bd c5 24 f3 bc
       -0.010108545 -0.14041866 -0.07167587 -0.029680619
000040 e0 40 ab bc 0d 6f 0c bd bf 9e 8d bd 5b 6d 09 bc
       -0.020904958 -0.034285594 -0.06915044 -0.008387889
000050 32 ce a5 3c 3d 78 8d bd 49 85 a5 bc 12 d6 82 bc
       0.020239923 -0.06907699 -0.020205157 -0.015971217
000060 98 f9 6f 3c d5 60 a3 bd 80 ef 08 3b 69 d5 3d bd
       0.01464691 -0.079774536 0.0020894706 -0.046346102
000070 24 ff 8c 3b 5f 8f ec bd 02 33 83 bd 7e 9b e5 bd
       0.004302876 -0.11550783 -0.06406213 -0.112112984
000080 15 f1 16 3d 4a 4e d3 bc a4 42 b2 3d cf fa 14 be
       0.036851007 -0.025794167 0.08704117 -0.14548801
000090 2a 4b e7 bd 4e 81 ab bd 69 a8 db bd ee 5c 84 bd
       -0.11293633 -0.08374272 -0.10725481 -0.064630374
0000a0 95 c8 9e bd a9 30 ec bd b3 f9 dc bc 4a 0b 97 3c
       -0.07753102 -0.11532719 -0.026974535 0.018438
0000b0 03 d2 ed bc 27 ea 4e bd d7 2e 3d 3d 11 dc d2 3d
       -0.029030805 -0.050516274 0.046187248 0.102958806
0000c0 ef 13 81 bd 35 56 82 3c e1 92 9a bd 36 ae e6 3c
       -0.0630263 0.015910247 -0.07547546 0.028159242
0000d0 48 06 e7 bd 64 8d c2 bd 32 79 e5 bd 33 30 01 bd
       -0.11280495 -0.09499624 -0.11204757 -0.031540107
0000e0 ec 0c e2 bc 88 86 12 be 7b e5 7e bc a8 0e 20 bd
       -0.027594052 -0.14309132 -0.015557642 -0.039076477
0000f0 10 c4 43 bd c7 a8 02 bd c6 44 80 bd e7 aa a5 bd
       -0.0477944 -0.03189924 -0.062631175 -0.08089238
000100 d2 d0 4e bc b3 c4 8c bc 50 28 3b be 24 a6 08 bd
       -0.012623029 -0.017183637 -0.18277097 -0.03336157
000110 e2 4b cb bd 5c 84 91 3d 10 90 3e bc d9 7f e2 bd
       -0.09926583 0.07105324 -0.011631027 -0.11059541
000120 98 54 56 bd 83 9e 2e 3c 4a b5 33 ba a9 9c 7e be
       -0.05232677 0.010657909 -0.0006855322 -0.24864449
000130 55 ef d3 bd 70 6e 05 3d 09 3b b4 bd 29 37 da bd
       -0.10348383 0.032576025 -0.088003226 -0.10655052
000140 97 69 b8 bd 69 58 d3 3c e6 c3 60 bc 01 8a 32 be
       -0.09004515 0.025798993 -0.013718581 -0.17435457
000150 89 91 0e 3d b6 99 2f 3d 67 b7 c0 3b 31 de 14 bd
       0.034806762 0.0428712 0.0058812383 -0.03634471
000160 b8 96 ae ba 1a 97 f7 bd fa aa 9f bd f6 14 65 bd
       -0.0013320064 -0.12089367 -0.07796283 -0.055928193
000170 1b 45 d5 bc 15 5e 97 bd 07 36 e5 3d c8 d8 e3 3d
       -0.026033929 -0.073909916 0.111919455 0.11125332
000180 ad ec 46 3c 11 f0 f3 3b be 73 ee 3c e6 f4 53 be
       0.012141389 0.0074443896 0.029107925 -0.2069889
000190 2a 67 14 be ee dc 13 be 74 9d 05 be 89 27 e3 bd
       -0.14492479 -0.14439747 -0.13048345 -0.11091525
0001a0 6f 4f be bd 20 c2 88 be 29 17 3d 3d c9 4c 8c bd
       -0.092924945 -0.26710606 0.046164665 -0.06850583
0001b0 be 2a 30 bd a0 86 3c 3d 87 b0 3c bd c4 69 18 be
       -0.043009512 0.046026826 -0.046066787 -0.14884096
0001c0 82 6a 07 be c3 f6 63 bd b7 4a b0 3d 65 8a 19 bd
       -0.13224223 -0.055655252 0.08608001 -0.0374855
0001d0 a6 a3 4f 3d 15 6a be be fb ed 8e bd 14 e0 b3 3d
       0.050693177 -0.3719031 -0.06978985 0.08782974
0001e0 72 0f 43 be 99 ba 1c be f7 23 a4 bc 70 68 f9 bd
       -0.1904886 -0.15305556 -0.02003668 -0.12178123
0001f0 27 da 6d bd 51 df 36 bd fd 01 67 bd 5b 34 31 bd
       -0.058069374 -0.044646565 -0.05639838 -0.04326282
000200 38 dd c0 3c aa d2 60 bc 66 77 2b be 17 30 ca bd
       0.023542985 -0.013722101 -0.16744766 -0.09872454
000210 c9 3d 19 bd 69 da 5c bc 51 e2 78 3c 6d 6a ef bd
       -0.03741244 -0.013479807 0.015190677 -0.11690221
000220 ce d2 1a be fc a2 e1 3b 1d b9 ec bb 9e 22 7c 3d
       -0.15119478 0.0068858843 -0.0072242157 0.06155645
000230 ea aa 8a bd 40 1d 08 be d7 df c5 bd 93 81 cb bd
       -0.067708805 -0.13292408 -0.09661835 -0.09936824
000240 30 34 07 bc b1 c4 81 bd 30 a0 45 bd 5f 93 1b 3d
       -0.008252189 -0.06336344 -0.04824847 0.03798234
000250 59 d6 1d be 79 6e 77 bd b0 84 e6 bd 7a 99 87 bc
       -0.15413798 -0.06040809 -0.11255777 -0.016552676
000260 9e 8f c9 bd 67 f0 10 3d aa b2 50 3d 3c 3a e3 bd
       -0.09841846 0.035385516 0.050951637 -0.11095092
000270 c4 e9 3a 3c 8f 55 45 3d 00 27 b6 bd fe c5 df bd
       0.011408273 0.0481773 -0.088941574 -0.10926436
000280 e1 5a 96 3b 9a 3c 24 be 39 83 e8 bb f7 15 cc bd
       0.0045884703 -0.16038743 -0.007095721 -0.09965127
000290 e5 8f eb bd 2a c8 b5 bd cd 43 8c bd 26 f6 1a 3d
       -0.11502055 -0.08876069 -0.068488695 0.0378324
0002a0 ad 36 af bd 82 49 a4 bc d7 d7 b0 bc d3 f2 00 bc
       -0.085553505 -0.020054583 -0.021587295 -0.007870394
0002b0 69 a3 d0 bd 66 13 a0 bc 1e e8 df 3d 4f 60 df bd
       -0.10187418 -0.0195405 0.10932945 -0.10907041
0002c0 ed 25 66 bd e1 72 de 3d f3 17 c7 bd a6 ca f8 3c
       -0.056188513 0.10861755 -0.09721365 0.030370068
0002d0 f0 14 d7 bd ec 00 01 bd 0e d0 4d 3e 2f da 3b 3e
       -0.105020404 -0.03149502 0.20098898 0.18344949
0002e0 d9 35 33 bd 34 41 81 3c 90 b2 2d 3d 49 49 0d 3c
       -0.043752525 0.015778162 0.04240662 0.00862343
0002f0 6a 3d d4 3d 8c 38 ac bd cd 0f 55 bd 11 fd 90 bd
       0.10363276 -0.08409223 -0.052017022 -0.070795186
000300 5e 45 55 3e 92 97 80 bd 09 b0 c3 3a 76 63 93 bd
       0.20827243 -0.0627891 0.0014929782 -0.07196705
000310 4e c1 59 bd 72 72 4e bd fb ab 35 bd 16 7f 44 3e
       -0.053162865 -0.050402112 -0.044353466 0.19189104
000320 f3 0f 61 3e f9 8b 11 bd d4 38 7d 3e 12 99 53 3c
       0.2197874 -0.03553388 0.2472871 0.012914913
000330 2c 93 b8 3e fd da e3 bd 64 f1 a9 3e 68 b7 54 be
       0.36049783 -0.11125753 0.3319198 -0.20773089
000340 e0 d9 72 bd 02 9c 6a be d5 2c 5c bd c5 35 e1 3d
       -0.059289813 -0.22911075 -0.053753693 0.10996584
000350 d3 09 df bd 94 c5 88 3c 2a cf 04 be 5a 5d 0f 3e
       -0.10890546 0.016695775 -0.12969652 0.14000455
000360 7a 76 3e be c3 42 f3 bd 9d 95 6c 3e 3e 6b 00 bc
       -0.18599883 -0.11877968 0.23103948 -0.0078380685
000370 ec 87 aa bc 7a 6e ed bc 7f 19 4d bd cb 05 ec bd
       -0.020816766 -0.028983343 -0.050073143 -0.115245424
000380 78 7c de 3c 99 7a f9 bd ab 4e ff bd 64 b3 b7 bd
       0.02715896 -0.12181587 -0.124661766 -0.08969763
000390 be b4 e3 bd eb de 0e 3e 2e 56 04 be de 43 b8 bd
       -0.11118458 0.13952224 -0.129235 -0.0899732
0003a0 75 18 b5 bd 1d 7e e7 bc a9 9b c5 bd 98 6e de 3d
       -0.088425554 -0.028258378 -0.096488304 0.10860938
0003b0 ba fb a6 bd af 41 63 bd fb 2f 86 bd e7 e5 bb bd
       -0.08153482 -0.055482563 -0.0655212 -0.0917471
0003c0 f0 21 b6 3d cb 16 70 3e b5 e5 34 bd 23 30 53 3e
       0.08893192 0.23446195 -0.04416438 0.20623831
0003d0 55 9c 00 be 2b 95 94 bc cf 3d 32 be 20 ac 80 be
       -0.12559636 -0.018137535 -0.1740639 -0.2513132
0003e0 1c c6 b1 bd 7d e3 42 be e0 0a 9c 3d ea 1f 93 be
       -0.086803645 -0.19032092 0.07619262 -0.28735286
0003f0 35 07 2e bd 24 15 be 3e 9a e5 82 be 6a 97 33 be
       -0.042487342 0.37125504 -0.25565797 -0.17538229

layers.1.bias f4 [64]
000000 42 2d 9d bf c9 72 67 bf c0 5b 86 bf 66 74 1d bf
       -1.2279437 -0.90409523 -1.049675 -0.61505735
000010 39 44 8d 3e ee fd 05 c0 c1 dc 7a 3e c5 44 25 c0
       0.27591112 -2.0936236 0.24498273 -2.5823224
000020 3b 7a c8 3c 45 89 9d bd 4e 9f ea bf e7 c7 fc 3d
       0.024472347 -0.07692198 -1.8329866 0.12342816
000030 6b 6f 0e c0 5e 03 fa bf 19 67 09 c0 d9 cd 58 3e
       -2.2255504 -1.9532278 -2.1469176 0.21172275
000040 41 01 8d bd 95 10 40 be 68 b3 25 3e 09 f4 3a bd
       -0.06885005 -0.18756326 0.1618172 -0.045642886
000050 a6 76 e7 3e f6 1b 1d c0 8b b2 1e 3e 60 61 1c c0
       0.4520771 -2.4548316 0.15497796 -2.4434433
000060 7b 8e b0 3d 64 17 45 bf 07 09 89 be ad 54 26 bf
       0.08620926 -0.76988816 -0.267647 -0.64972955
000070 18 36 b8 bd 36 9c 8d 3d d7 6b 14 3e 22 b6 6c be
       -0.089946926 0.069145605 0.14494263 -0.23116353
000080 69 dd f3 bf 8a a4 96 bf be dc 31 c0 11 8b 38 bf
       -1.9051944 -1.1768963 -2.779098 -0.720872
000090 4e 61 17 3e 34 54 96 bf 36 34 49 3d 35 cf e8 bf
       0.14783213 -1.1744447 0.049122058 -1.8188235
0000a0 a3 ee 70 3e b4 92 0e c0 b5 96 1e c0 30 aa 02 c0
       0.23528533 -2.227704 -2.4779484 -2.0416374
0000b0 0d 5d 26 bf a3 4f b6 bf 23 7b 2a bd 2f c0 ff be
       -0.64985734 -1.4243053 -0.04162134 -0.49951312
0000c0 e9 d3 d5 bc e1 ba cd bf d3 59 ca 3e a6 20 be 3e
       -0.026102023 -1.6072656 0.39521655 0.37134284
0000d0 0f c8 5f 3e dd 64 be 3e 50 ce 94 3e cd e2 8b bf
       0.2185366 0.37186328 0.29063654 -1.0928589
0000e0 63 01 8a 3e 3f 52 22 be 47 d6 5a 3d 3c b3 f3 bf
       0.26954183 -0.15851687 0.053427007 -1.9039073
0000f0 70 bb 01 3f f3 9f bf 3d ba 71 09 c0 69 b3 23 c0
       0.5067663 0.0935668 -2.1475663 -2.5578253

layers.2.weight f4 [128, 64]
000000 11 6a 0f bd 6b c6 f9 3b 38 4e 7e bc a7 be 1c 3c
       -0.035013262 0.00762253 -0.0155215785 0.009566939
000010 bb 1f 06 3d c9 b6 58 3c a7 1f 15 3d 88 83 94 bc
       0.032745104 0.013227173 0.03640714 -0.018129125
000020 8a 31 18 3d 60 8e b5 bc 46 32 64 3c 79 3d 8f 3c
       0.03715662 -0.022162616 0.013928002 0.017485367
000030 f3 0f 57 3b 43 97 58 bc 84 4b 6b bc f4 8c 8a 3c
       0.0032815903 -0.013219657 -0.014361266 0.016912915
000040 3f db 04 bb d9 ae e8 bc 62 8f ed 3b a4 72 9d 3b
       -0.0020272282 -0.028403686 0.0072497586 0.004804926
000050 c9 dd 6d 3c 6f cd 71 bc 68 ef 9a bb 90 61 63 bc
       0.01451821 -0.014758452 -0.0047282465 -0.013878241
000060 32 5d 60 3a 11 09 56 bd 18 03 9a b9 54 0b e6 3a
       0.0008558809 -0.05225474 -0.00029375474 0.0017550983
000070 24 2d cf 3c 47 22 95 3c 0b 84 49 3c 6f ec cc 3b
       0.02529008 0.018204821 0.012299548 0.006253771
000080 22 da 5f bb c1 71 4b bc a8 56 c9 bb 3c 74 e1 3c
       -0.0034157117 -0.012417258 -0.0061443634 0.027521245
000090 71 ec ce 3c ef f7 de ba 9d ef b9 bc ef 97 13 bc
       0.025259228 -0.0017011146 -0.022697264 -0.009008392
0000a0 00 12 45 3c f6 4e a7 3c 63 e9 2e bb 80 ec c3 bc
       0.012028217 0.020423394 -0.0026689402 -0.023916483
0000b0 2c 9a 85 3c 7f 50 c5 bc a4 eb a8 3c ee 28 91 bc
       0.016308866 -0.024086235 0.020620175 -0.017719712
0000c0 88 c0 e4 3c 9a f7 66 bc 84 73 09 3c 83 06 8a 3c
       0.027923837 -0.014097119 0.0083893575 0.016848808
0000d0 f5 23 af 3c 0b 74 a3 3c 32 fa 54 3c f8 e9 24 bc
       0.02137945 0.019952795 0.012999104 -0.010065548
0000e0 f2 b2 24 3c c6 f8 00 bd 6f e2 c8 3c f1 72 c2 3c
       0.0100524295 -0.03148725 0.024522034 0.023736449
0000f0 bc 7f d6 3c fa ac 64 bc 6b ac 38 bc d3 96 9f ba
       0.026183955 -0.013957256 -0.011271576 -0.0012175686
000100 49 f9 73 bd e3 80 24 3d 05 a5 69 bc f8 e9 bc bc
       -0.05956391 0.04016198 -0.014260535 -0.023060784
000110 bb 17 a4 bc 1e 17 28 bc 0c d7 20 bc fd b2 09 bb
       -0.020030847 -0.010259418 -0.009816896 -0.0021011226
000120 de 35 8e bc fe 10 c9 bb 2f 42 8b 3c c8 16 79 ba
       -0.01735967 -0.006136059 0.016999332 -0.0009501991
000130 9c 16 39 bd 45 7f fa 39 aa b5 f1 3b 08 64 fc ba
       -0.045187578 0.0004777854 0.0073763924 -0.0019255886
000140 9a 5d f1 ba 79 cf c2 bd 26 70 49 bc 94 16 22 3c
       -0.0018414736 -0.095122285 -0.012294805 0.009893078
000150 44 da 25 bb b8 7f e5 3c 59 55 49 bd c6 ba 0f 3c
       -0.0025307098 0.028015003 -0.04915366 0.008772558
000160 0b e5 73 bb ea 38 ea bc f2 b4 78 bb c4 96 27 3c
       -0.0037215378 -0.028591592 -0.0037949649 0.010228816
000170 dd 83 8c bc 03 7d 59 3c 67 3a e6 3b e9 ca cf 3c
       -0.017152721 0.013274434 0.007026005 0.02536531
000180 cc 76 c2 3c 36 80 00 bd c6 17 fd 3a c6 79 a4 3d
       0.023738287 -0.03137227 0.0019309453 0.08031039
000190 1e eb 04 3c 1e 35 99 3c e2 cb 1e bd 96 96 ec bc
       0.008112697 0.018702086 -0.038768657 -0.028880399
0001a0 d6 6b d6 bb 26 92 49 3c db 21 52 3b 5f 03 cf 3b
       -0.0065436168 0.012302911 0.0032063636 0.0063175405
0001b0 1f eb 59 bc 12 72 38 3d 0d 73 31 3c ae dd 02 bd
       -0.013300686 0.04503066 0.010830653 -0.03194969
0001c0 c8 21 f6 3a ac 00 07 3d 7d 42 01 bd b2 8a f3 bc
       0.0018778378 0.032959625 -0.03155755 -0.029729221
0001d0 f3 a9 b5 3b 99 af 09 3c 64 ae 5d 3b 4a 7e 3f 3c
       0.005543941 0.008403682 0.0033825869 0.0116878245
0001e0 78 68 6e ba b3 a7 0c bd e7 18 97 3c 72 d2 4f 3c
       -0.00090945465 -0.034339618 0.018444492 0.012684451
0001f0 fe 3d bf 3c 3a 12 00 bd 4d 0b 0d 3c f2 12 e4 3b
       0.02334499 -0.031267382 0.008608651 0.0069602663
000200 6a 17 29 3d e6 a0 15 3c dd 7d 1c 3d ad fb 6a 3b
       0.041282095 0.009132599 0.03820597 0.0035855577
000210 9e 56 0b bc d4 54 9d bc 4a ce 8f bc 0a 16 0d ba
       -0.008504538 -0.019205488 -0.017554421 -0.0005382007
000220 40 04 c8 3b cd b1 8a 3d 0b 88 79 bb b9 4b 65 bc
       0.0061040223 0.06772194 -0.0038075473 -0.0139951045
000230 e4 bd 4f 3c 3a 40 02 3d 9b 8b 10 3c 2a 06 62 bc
       0.012679551 0.031799532 0.008822347 -0.013795415
000240 b2 30 17 3b ce 38 74 bc 23 d9 83 bc 52 97 43 bc
       0.0023069796 -0.014906121 -0.01609475 -0.011937933
000250 31 18 24 39 3f 2e ba 3c 60 19 1d 3d 38 f6 aa 3c
       0.00015649271 0.02272713 0.038354278 0.02086936
000260 c2 37 ec bc 67 57 af 3c 5c 94 5b 3c d1 6b 22 bc
       -0.028835181 0.021403981 0.013402071 -0.009913401
000270 10 d1 10 bc fe a7 b5 bc c9 65 ee bc 7c 22 25 bd
       -0.008838907 -0.022174831 -0.02910127 -0.04031609
000280 9f cd ac 3c 4d c4 33 3d 85 a4 df 3b 27 25 fd 3c
       0.021094142 0.04388838 0.006825032 0.030901505
000290 04 b1 32 39 d3 7f a3 bb 76 dc bb bc 7a 2b bc 3c
       0.00017041346 -0.004989603 -0.022932272 0.02296995
0002a0 9f 43 60 bc 15 bf ee 3c 06 bb b8 3c 91 6a 03 3b
       -0.013687997 0.02914385 0.022550117 0.0020052532
0002b0 d2 b2 06 bc 33 72 3f bd 36 8b 9d bc 1b d4 a3 bc
       -0.008221345 -0.04673977 -0.01923142 -0.0199986
0002c0 27 e6 6d bc 3f 99 06 bc 49 f0 25 bb 2f c6 08 bd
       -0.014520205 -0.008215248 -0.0025320223 -0.033392128
0002d0 36 76 0e bc 6e 70 29 bc 48 38 96 bc 1c 82 09 bd
       -0.008695176 -0.010341747 -0.018337384 -0.033571348
0002e0 39 b0 95 bc 1e f5 80 3c fe 20 7a bc 06 2e 18 3c
       -0.018272506 0.015741881 -0.015266655 0.009288317
0002f0 17 5a f7 39 75 70 b9 3c 3c af 97 3c 6b 44 b0 3c
       0.00047178633 0.022636632 0.018516175 0.021517
000300 45 a1 a1 bc 41 65 be 3d 65 e0 07 bd 0f 41 29 bd
       -0.01973022 0.092966564 -0.033172984 -0.04132181
000310 38 cd 70 bd eb e1 d0 bc 5a 37 4b bc 63 d7 9a 3c
       -0.05878946 -0.025498351 -0.012403334 0.018901533
000320 39 5d 15 bd 7f 8c 8c bd 40 42 03 bd bd 2f 5e bd
       -0.036465857 -0.06862735 -0.032045603 -0.054244746
000330 8b 4d e5 bc 1a cb 19 3d cf 51 0e 3d c6 c6 4a bd
       -0.027991077 0.03754721 0.034745988 -0.04950597
000340 cb db 2d bc 3b a8 97 bd a7 fe 5a bd e2 5c 56 bd
       -0.010611485 -0.07405134 -0.05346551 -0.052334674
000350 2f f9 64 bd 26 63 b8 bb 9f ba 59 bd 57 78 ca 3a
       -0.055901702 -0.005627054 -0.05315649 0.0015447241
000360 d7 13 d5 bc a0 67 81 bd 09 9f 45 bd a3 fa 6f 3d
       -0.026010437 -0.06318593 -0.04824737 0.058588635
000370 6c 0c cf 3c 63 31 3d bd 06 29 fb bc 42 80 84 3d
       0.025274478 -0.046189677 -0.03065921 0.06469776
000380 6b b2 12 bc b5 0f 33 bd 60 00 32 3d 4e c6 94 3d
       -0.008953671 -0.04371615 0.04345739 0.07264386
000390 b3 e2 62 bd b2 83 5b 3d 81 85 90 bc fe 8b 11 bd
       -0.05539198 0.05359239 -0.017641785 -0.035533898
0003a0 c6 ea 2d bd a5 b0 c5 bc ba 55 de 3c 7c 1a f9 3c
       -0.042460226 -0.024132082 0.027140487 0.030408137
0003b0 88 63 ea bc 2c df 83 3d 00 5f 0b bd 98 ab b5 3c
       -0.028611913 0.06439051 -0.034026146 0.022176549
0003c0 01 c8 41 bd 52 0b f4 bc d6 9c 61 bd 18 44 3e bc
       -0.04730988 -0.029790554 -0.05508121 -0.0116129145
0003d0 8a 1a 52 bd 00 24 4e bd 1b 14 57 bd cb 72 4d bd
       -0.05129484 -0.0503273 -0.05250941 -0.050158303
0003e0 22 81 64 bd ea e9 a7 bc d1 b6 2e bd d6 9e bd bc
       -0.055787213 -0.020497281 -0.042654816 -0.023147028
0003f0 0f 56 82 bd 66 1b 48 bd 4c 76 3e 3d b6 b8 db 3c
       -0.063640706 -0.048854254 0.046499535 0.026821475

layers.2.bias f4 [128]
000000 6a 7b a1 3f 9b 41 ef 3f a9 a9 af bf ac 4b 3c bf
       1.2615788 1.8691896 -1.3723651 -0.73552966
000010 4d 95 d9 3e 82 d9 a0 bf 6a a9 06 3f 23 af f1 3e
       0.4249672 -1.2566378 0.52602255 0.4720393
000020 ef f9 f5 bf 2d cf b6 3f f4 55 ac 3f cc 80 a2 bf
       -1.9216899 1.4281975 1.3463731 -1.2695556
000030 3f d1 54 bf b5 11 75 3f ab db cc bf ff 1d 7d be
       -0.83131784 0.95730144 -1.6004537 -0.24718474
000040 cc c6 8a bf cd a9 06 40 c1 76 e3 3f a9 43 f2 bd
       -1.0841918 2.1041138 1.7770616 -0.118293114
000050 63 7f 5f bf 3a a1 77 3f bc 07 2f c0 48 00 29 c0
       -0.8730375 0.9673039 -2.734847 -2.6406422
000060 ef 4a 2b c0 f3 81 83 bf a0 32 27 bf 89 66 e7 3e
       -2.6764486 -1.0274032 -0.6531162 0.45195416
000070 02 2a 2c 3f 8e a5 b8 3f 13 04 fe be 44 82 82 bf
       0.672516 1.4425523 -0.49612483 -1.0196004
000080 da 84 74 bf 78 64 1d 40 71 ef de bf fc 60 de 3f
       -0.95515215 2.4592571 -1.7416822 1.7373347
000090 01 d2 ba be 76 31 28 40 83 ee 93 3f c2 2e 0b 3f
       -0.36488345 2.6280189 1.1557163 0.5436822
0000a0 f2 e7 19 3f 63 97 db bf 32 37 74 3e 8f e2 c3 3e
       0.60119545 -1.7155575 0.2384918 0.38258788
0000b0 51 de 2b bf 3d a5 80 3f 88 4a 8d 3e 3e 39 a6 3f
       -0.671361 1.0050427 0.27595925 1.2986219
0000c0 34 97 d6 bf a4 73 37 bf bc ff 33 3e 72 78 15 bf
       -1.6764894 -0.7166083 0.17578024 -0.5838691
0000d0 ff a1 08 c0 43 70 0f bf 0e 04 74 3e 10 c8 44 3f
       -2.1348875 -0.5603067 0.23829672 0.7686777
0000e0 d7 29 ad 3e 24 77 e7 bf 82 92 d0 bf 51 3d 70 3f
       0.33820984 -1.8083234 -1.6294711 0.9384356
0000f0 49 19 ab 3e c2 6a 6a 40 9c dd 3e 3e 42 6a c4 3e
       0.3341773 3.662766 0.18639225 0.38362318
000100 79 4d aa be e6 84 9e 3e 61 6f 1b 3e f2 e4 c9 3e
       -0.33262232 0.30960768 0.15179206 0.39432484
000110 5a a8 20 bf d4 e1 9e bf 9d 93 63 3e c0 77 62 3f
       -0.62756884 -1.2412667 0.22224279 0.88463974
000120 3b 76 8b bd c4 18 2f bf e4 90 fe bf c7 f6 27 c0
       -0.0680966 -0.68397164 -1.9887967 -2.624437
000130 9d 2d d7 3f fa 60 ea 3e a2 24 90 3e dc a0 b1 be
       1.6810795 0.45777112 0.2815295 -0.34693038
000140 3a 8e 85 3f da f4 1b 3f a2 71 8e bd fe e7 a6 bd
       1.0434029 0.6092049 -0.069552675 -0.08149718
000150 02 24 9c 3f b4 1d 51 3f 36 a2 44 3f 6c c4 ac 3f
       1.2198489 0.8168595 0.76810014 1.3497443
000160 23 94 46 3b 0b 85 ac be b5 31 aa bf 5c 39 b9 3f
       0.0030300699 -0.33695254 -1.3296419 1.447063
000170 02 9f 93 be ac 45 64 3d 01 43 2e bf 5a 42 ba be
       -0.2883225 0.055730507 -0.6807099 -0.36378747
000180 93 7d 38 40 9c 7a 94 3f a8 d1 b5 bf 47 8f 2c 3e
       2.8826644 1.1599917 -1.4204607 0.16851531
000190 72 4e e9 bf 35 98 ba be 5e b6 cb 3e e4 4d ac be
       -1.8227065 -0.3644425 0.39787573 -0.33653176
0001a0 13 6f c9 bc 5e b0 f8 3e 91 23 ef bf 63 67 b4 3f
       -0.024589097 0.48572057 -1.8682729 1.4094051
0001b0 cd 66 48 c0 40 70 6d 3f 74 1e e5 3e 20 1b 0f be
       -3.1312745 0.92749405 0.44749796 -0.13975191
0001c0 8e d1 9e 3e e1 52 fb bf 36 2d c6 be b7 04 4f 3f
       0.31019253 -1.9634668 -0.38706368 0.8086657
0001d0 70 f0 42 3c 1e ff 83 bf 25 8f 73 be 22 1a 8b bd
       0.011898145 -1.031223 -0.23785074 -0.06792094
0001e0 95 47 cf be e6 91 41 bf c6 71 14 3f 1b 70 83 be
       -0.404843 -0.7561325 0.57986104 -0.25671467
0001f0 18 b4 61 3f 03 da 83 bd b4 db 9e 3f b7 26 08 40
       0.88165426 -0.06438067 1.2410798 2.127363

exp_avg f4 [64, 170]
000000 1c 2a 25 ba 97 8a 45 ba cb b2 92 ba 82 c4 88 ba
       -0.0006300525 -0.0007535605 -0.00111922 -0.001043454
000010 30 51 72 ba 2a da 92 ba e9 2a 11 b8 e7 3d 1a ba
       -0.0009243665 -0.0011203934 -3.4610657e-05 -0.0005883858
000020 4b 44 51 ba 70 4e b7 b9 4b 88 d2 b9 48 04 fe ba
       -0.0007982894 -0.0003496292 -0.00040155867 -0.0019379938
000030 53 ef 9f ba 6b f9 bd ba 58 92 9c ba d3 70 ee ba
       -0.0012202061 -0.0014493888 -0.0011945469 -0.0018191583
000040 20 a6 e7 ba 0a c1 ee ba cb 07 e3 ba 1e b4 93 ba
       -0.001767341 -0.0018215489 -0.0017321048 -0.0011268889
000050 fe b3 cd ba 9b c3 c1 ba b9 0a 1d ba aa 86 a8 ba
       -0.0015693901 -0.0014783026 -0.00059906725 -0.0012857516
000060 3f ed 95 ba b5 99 1d bb a1 3b 06 bb 6a f0 1a bb
       -0.0011438503 -0.0024047915 -0.002048232 -0.0023641833
000070 e6 12 c8 ba d5 4e 57 ba 15 2b 0e bb a9 f9 d5 ba
       -0.0015264421 -0.0008213346 -0.002169316 -0.0016325015
000080 7a d7 cb ba 29 1e 39 ba 36 ce b3 b9 86 15 87 ba
       -0.0015551888 -0.0007061684 -0.0003429518 -0.0010306097
000090 eb 39 7e ba de fa 34 ba bc a9 5e ba a5 38 00 ba
       -0.00096979615 -0.0006903837 -0.00084939203 -0.0004891253
0000a0 e7 ee 9c ba b4 5c 77 ba 11 fa c1 ba 00 20 44 ba
       -0.0011973054 -0.0009436116 -0.0014799257 -0.0007481575
0000b0 92 e3 a2 ba 43 b6 50 ba 36 96 0a bb 2d 7b df b9
       -0.001242744 -0.00079617294 -0.0021146662 -0.00042625648
0000c0 b0 58 10 ba 4a 72 af ba 90 81 f0 b9 5e fd 4c ba
       -0.00055063795 -0.0013385501 -0.000458729 -0.0007819737
0000d0 43 73 80 ba 54 04 bb ba f4 c7 ca ba b9 6c 88 ba
       -0.0009799976 -0.0014268258 -0.0015470968 -0.0010408378
0000e0 3f f4 8e ba ba 8d c0 ba 43 c7 93 ba 4c 9a 97 ba
       -0.0010906531 -0.0014690675 -0.0011274595 -0.001156637
0000f0 0a 00 61 ba ba d4 e9 ba 05 07 cf ba 9a fc 59 ba
       -0.00085830747 -0.0017839887 -0.0015794939 -0.00083155336
000100 27 54 91 ba c1 ee d4 b9 18 03 d1 ba a1 fe 74 ba
       -0.0011087701 -0.00040613677 -0.0015946357 -0.0009345804
000110 6a 0c 91 ba 41 e5 86 ba 76 8d 9e ba 84 1a b4 ba
       -0.0011066322 -0.0010291712 -0.0012096602 -0.0013740812
000120 14 24 6f ba 9a c5 ed ba ac 42 98 ba 1b f9 a3 ba
       -0.00091225025 -0.0018140555 -0.001161655 -0.0012510152
000130 81 18 89 ba cc 7b c7 ba f2 21 b5 ba 79 3b e7 ba
       -0.0010459573 -0.001521939 -0.0013819321 -0.0017641626
000140 35 08 98 ba 79 aa b4 ba b8 89 d6 ba 98 ee 9b ba
       -0.0011599126 -0.0013783715 -0.0016367948 -0.0011896668
000150 9b 2b 9c ba c2 42 ca ba c7 25 9f ba 66 11 84 ba
       -0.0011914851 -0.0015431272 -0.0012141996 -0.0010075986
000160 9c 4a 18 ba 35 b2 39 ba 86 1a 41 ba 8d db af ba
       -0.00058094575 -0.0007083745 -0.0007366318 -0.0013416872
000170 c2 95 18 ba 05 ad 85 ba 70 e3 0c ba 00 a0 ba ba
       -0.00058206555 -0.0010198659 -0.0005374467 -0.0014238358
000180 3b cd d1 b9 3b 7b 43 ba 61 bb 71 ba a4 42 04 bb
       -0.00040016495 -0.00074570224 -0.0009221342 -0.0020181322
000190 b9 05 a9 b9 4d c8 9c ba b5 64 ad ba fd c9 f9 ba
       -0.00032238456 -0.001196155 -0.0013228866 -0.001905739
0001a0 a8 d6 0d ba 3e db d3 ba 04 9a a6 ba ee 84 18 bb
       -0.00054107094 -0.0016163362 -0.0012710695 -0.0023272592
0001b0 ac 55 f8 ba ca 5d f4 ba ba 27 6d ba a5 cd dc ba
       -0.0018946431 -0.0018643674 -0.0009046752 -0.0016845955
0001c0 2c 0c a0 ba 89 e9 d9 ba f8 e0 0f bb cd fe 2b bb
       -0.0012210659 -0.0016625385 -0.002195416 -0.0026244402
0001d0 41 90 15 ba d6 15 a0 ba 49 b1 e9 ba 46 37 15 bb
       -0.00057053944 -0.0012213539 -0.0017829324 -0.0022768541
0001e0 c5 87 70 ba 48 69 9e ba 1b c1 44 ba 25 c9 91 ba
       -0.00091755047 -0.001208582 -0.00075055816 -0.0011122568
0001f0 37 9d ce ba 80 60 b0 ba 85 53 95 ba be e3 0f ba
       -0.0015763406 -0.0013456494 -0.0011392689 -0.00054889533
000200 da 58 d0 b9 92 be 65 b9 87 ab 80 ba 15 2b 84 ba
       -0.0003973905 -0.00021910135 -0.0009816744 -0.001008364
000210 f0 58 aa ba 7b db 8d ba 26 99 be ba fb f3 a5 ba
       -0.0012996476 -0.0010822857 -0.0014541491 -0.0012661213
000220 f0 2a 91 ba 5a 60 02 bb 79 7b 01 bb 09 48 21 bb
       -0.0011075418 -0.0019893856 -0.0019757433 -0.0024609587
000230 c6 f9 32 ba 3a 05 af ba db 38 fe ba 65 53 92 ba
       -0.000682738 -0.0013352998 -0.0019395606 -0.001116377
000240 e8 97 87 ba e9 8e 52 ba 25 98 c4 ba c9 67 02 bb
       -0.0010344954 -0.00080321595 -0.0014998956 -0.0019898287
000250 31 a5 63 ba f0 55 9a ba 97 ad a0 ba 72 e6 99 ba
       -0.0008683978 -0.0011774879 -0.0012258765 -0.0011741652
000260 b4 7a 4b ba df 20 03 ba 73 01 a2 ba df 58 b3 ba
       -0.00077621196 -0.00050021516 -0.0012360051 -0.0013683102
000270 e3 0b 3a ba 39 9d b5 ba 82 6d c7 ba 11 ad 2b ba
       -0.0007097108 -0.001385606 -0.0015215131 -0.0006548921
000280 d4 dd 48 ba d4 05 61 ba a7 8d 54 ba 62 c2 4d ba
       -0.00076624495 -0.00085839373 -0.0008108266 -0.00078490947
000290 62 92 94 ba ab 8f a9 ba 61 0f 9a ba 59 54 6c b9
       -0.0011335129 -0.0012936493 -0.0011753851 -0.00022538136
0002a0 cd 64 32 ba 5c 6f a9 ba ea b3 63 38 eb 72 8d 39
       -0.00068051816 -0.0012926864 5.4288575e-05 0.00026979236
0002b0 8e 7e b4 36 7a ef 8e 39 9e 39 08 39 7a 3d 2c b7
       5.379151e-06 0.00027262775 0.00012991435 -1.02663125e-05
0002c0 41 c0 d6 b7 3e 3e 92 b8 aa 1f 61 b5 7f 9b 38 b6
       -2.5600313e-05 -6.973416e-05 -8.386511e-07 -2.7508647e-06
0002d0 57 82 63 38 05 1b 5a 39 d6 de 1f 39 9b 29 3e 38
       5.4242406e-05 0.00020800166 0.00015246434 4.5338278e-05
0002e0 94 7c 05 b7 a4 0c 04 b5 97 19 d6 b6 4e f6 aa b6
       -7.956423e-06 -4.9192226e-07 -6.380676e-06 -5.0950684e-06
0002f0 91 e7 17 b7 f7 cb 28 37 9b 87 10 b9 36 d3 72 b7
       -9.054217e-06 1.006107e-05 -0.00013783427 -1.44735e-05
000300 7d 5a 14 39 91 56 40 38 d5 59 51 b7 93 20 68 38
       0.0001414809 4.585699e-05 -1.2478286e-05 5.5343447e-05
000310 8a 84 9c 35 85 3b 35 38 78 f8 61 b8 09 28 fe b7
       1.166148e-06 4.3209195e-05 -5.3875585e-05 -3.0297802e-05
000320 41 d1 2e b8 e6 16 fb b7 09 58 07 39 56 d8 8c 37
       -4.1679716e-05 -2.9932195e-05 0.00012907399 1.679004e-05
000330 18 bb b3 b6 53 cf b7 b7 31 25 8d 39 d1 05 ab 39
       -5.3563963e-06 -2.1911843e-05 0.00026921325 0.00032619995
000340 69 2f 0d b6 d5 a8 b3 35 3b d9 d1 38 1d 2f 5b 39
       -2.1038234e-06 1.3385676e-06 0.00010006359 0.00020903019
000350 20 c0 51 b7 07 52 7d 39 f2 61 59 38 3f 88 75 39
       -1.2502103e-05 0.00024158518 5.182805e-05 0.00023415776
000360 39 c5 40 39 42 c2 b6 34 a4 68 6f b8 b4 80 d9 34
       0.00018384018 3.4041483e-07 -5.7079495e-05 4.0513044e-07
000370 26 0b 27 b8 30 14 25 b7 88 5c bd 37 6b 79 ef 38
       -3.9826286e-05 -9.839467e-06 2.2573644e-05 0.00011419024
000380 72 9c 55 38 db b5 8b b6 51 0b a2 b4 f8 52 b9 38
       5.092886e-05 -4.1636936e-06 -3.0183085e-07 8.8369416e-05
000390 00 03 95 b7 db 38 e6 b6 2a 47 ae b5 af 1d 97 b7
       -1.7763581e-05 -6.861153e-06 -1.2984722e-06 -1.8014425e-05
0003a0 7d 7e 07 b8 6c 19 f2 35 0c fa 3f 39 53 2d 9a 37
       -3.230431e-05 1.8037804e-06 0.00018308329 1.8379336e-05
0003b0 8b 1a e5 b7 11 f8 d1 36 17 82 1c 36 c9 f8 8d b8
       -2.7311287e-05 6.257564e-06 2.3321534e-06 -6.769744e-05
0003c0 7f f0 43 b8 6f c9 f1 39 e1 a1 c4 39 57 ba ae 39
       -4.6715602e-05 0.00046117182 0.00037504642 0.000333267
0003d0 49 af 86 b7 ea 40 55 39 c3 ea cb b8 aa ea 5f b8
       -1.6055668e-05 0.00020337445 -9.723522e-05 -5.338589e-05
0003e0 6d 4c a2 b8 8a b3 24 38 05 06 2f 38 b7 6d 45 39
       -7.7389974e-05 3.9267856e-05 4.1728857e-05 0.00018828256
0003f0 7a 95 5f 39 dd 07 5b 38 08 dd 38 39 4c 94 16 39
       0.00021322622 5.2220992e-05 0.00017629948 0.0001436036

exp_avg_sq f4 [64, 170]
000000 42 90 9b 37 0b 72 2f 38 7c 25 0b 38 76 91 7a 38
       1.8544615e-05 4.1829462e-05 3.3175093e-05 5.9740116e-05
000010 76 7a a8 37 5d db d8 37 c8 bb 11 38 c7 15 a3 38
       2.0084186e-05 2.5851356e-05 3.474558e-05 7.776502e-05
000020 75 97 94 38 c3 b0 b9 36 4b a7 3a 38 20 b6 87 38
       7.085401e-05 5.5340074e-06 4.450166e-05 6.471225e-05
000030 56 df 1b 38 2c b8 fd 38 ba 0a 4f 38 98 44 35 38
       3.7162878e-05 0.00012098285 4.9362636e-05 4.3217646e-05
000040 a6 d8 44 39 f2 74 2c 38 2c c2 21 38 0e 28 67 39
       0.00018772724 4.111691e-05 3.8566228e-05 0.00022044798
000050 80 66 17 39 9f 31 9a 39 68 7c e5 37 f5 eb 50 39
       0.00014438666 0.0002941014 2.7356858e-05 0.00019924327
000060 21 8b 8e 39 c7 0e e6 38 14 5e 51 38 dc 7f 61 39
       0.0002718801 0.00010970007 4.99171e-05 0.00021505303
000070 30 3f 1b 39 0a 1f 14 39 0c 1e 2d 38 2d 0f 4f 39
       0.00014805491 0.00014125943 4.1274398e-05 0.00019746712
000080 6b 64 0c 39 30 e6 8c 37 7c 94 34 39 35 63 ed 38
       0.00013388849 1.679649e-05 0.00017221452 0.000113195194
000090 79 ae 86 39 05 71 fb 37 c6 68 18 39 82 af 21 37
       0.00025688464 2.997416e-05 0.00014534881 9.637211e-06
0000a0 65 87 66 39 9d 7d e4 37 5d 6f 32 38 22 d3 0b 38
       0.00021984948 2.7238211e-05 4.2542222e-05 3.3336815e-05
0000b0 30 0f 01 39 65 ec ff 37 0d 3e 5a 39 01 9f dc 37
       0.00012308056 3.0508449e-05 0.00020813216 2.6300086e-05
0000c0 96 79 2f 38 1a 64 9d 38 03 b2 88 39 d5 14 05 38
       4.1836487e-05 7.504989e-05 0.0002607257 3.1729072e-05
0000d0 b5 d3 10 39 48 e5 1c 38 06 58 56 38 57 63 0e 38
       0.00013811777 3.7406833e-05 5.1103554e-05 3.3947956e-05
0000e0 16 25 7c 38 5f 30 f2 38 c4 91 6b 38 50 48 4a 38
       6.011602e-05 0.00011548469 5.616412e-05 4.82279e-05
0000f0 29 79 38 38 b7 8f d1 37 ed e1 ca 38 e5 69 10 38
       4.3981858e-05 2.4981664e-05 9.6741926e-05 3.4430897e-05
000100 a5 d7 ff 37 53 c6 24 38 0b f6 9f 38 5f fa ef 37
       3.0498786e-05 3.928535e-05 7.62754e-05 2.8607608e-05
000110 d1 b2 d0 38 1a a6 d5 37 58 c7 3d 38 84 a0 dc 38
       9.95152e-05 2.5468926e-05 4.5246765e-05 0.00010520316
000120 1a df 9a 38 4a c5 90 38 c3 57 a6 38 ae c6 bb 38
       7.384848e-05 6.903203e-05 7.931844e-05 8.953862e-05
000130 1f a8 ff 38 eb 60 a7 38 8c 2e cd 38 c3 a7 9f 38
       0.000121906625 7.981233e-05 9.783832e-05 7.612959e-05
000140 06 e1 cb 38 55 56 69 38 58 97 d0 38 9a 4a fa 37
       9.721708e-05 5.5631932e-05 9.946403e-05 2.9837061e-05
000150 07 13 f8 38 a1 c1 17 38 8d a3 2b 38 2d d0 e1 37
       0.00011829106 3.6181536e-05 4.0921896e-05 2.691903e-05
000160 33 3e f4 37 c4 f7 1f 38 f4 f8 cb 38 cc df 12 38
       2.911603e-05 3.8139304e-05 9.7261654e-05 3.501754e-05
000170 1e 28 b6 37 d7 81 23 39 09 65 10 38 86 ab a8 38
       2.1714772e-05 0.0001559326 3.442637e-05 8.042813e-05
000180 bd a4 c6 36 e5 28 f8 37 64 e7 91 37 de d2 04 39
       5.920038e-06 2.9582947e-05 1.7393097e-05 0.00012667055
000190 08 73 24 37 0e bb 8e 38 5e ed 34 38 3c d9 7c 38
       9.8019445e-06 6.805929e-05 4.313641e-05 6.0283797e-05
0001a0 ef a5 37 37 81 1a e4 37 91 5d ce 37 0c 41 c2 38
       1.0946284e-05 2.719206e-05 2.4600684e-05 9.262757e-05
0001b0 a7 aa b5 38 d6 95 94 38 7f 31 f8 38 ab be 3c 38
       8.662539e-05 7.085099e-05 0.00011834781 4.5000266e-05
0001c0 79 22 f8 38 2e 48 c7 37 af 69 fb 38 6e 83 58 39
       0.000118319826 2.375626e-05 0.00011988298 0.00020648327
0001d0 5a 2e 94 38 79 3f eb 38 4f df f5 38 66 33 77 39
       7.0658236e-05 0.00011217496 0.00011724105 0.00023574903
0001e0 d0 f9 40 38 e0 13 de 37 81 22 5d 38 52 0f 36 38
       4.6009023e-05 2.6473717e-05 5.272264e-05 4.340645e-05
0001f0 37 a8 57 38 fb 4a c0 38 06 4b b8 38 66 c0 05 39
       5.1416657e-05 9.16924e-05 8.787778e-05 0.00012755542
000200 8b f2 0f 38 8a 68 4d 38 fe 3c f1 37 40 ed 0c 38
       3.4319743e-05 4.897317e-05 2.875784e-05 3.3599557e-05
000210 04 97 6d 38 2c e3 31 39 f7 b5 33 38 72 09 15 39
       5.6645848e-05 0.00016964664 4.2846394e-05 0.00014213266
000220 40 f5 d0 38 0b bb 4c 38 8b ef 2d 39 34 c4 80 39
       9.963894e-05 4.8811587e-05 0.00016587802 0.00024560245
000230 c4 4e b4 38 4c d0 08 39 0a 3b 64 38 65 8b 20 39
       8.59774e-05 0.00013047567 5.441442e-05 0.00015310718
000240 96 f0 93 38 ec 68 4d 39 ca 28 39 39 8f 13 35 39
       7.054319e-05 0.0001958941 0.0001765817 0.00017268791
000250 89 9b 86 38 6d 77 43 39 12 cc ab 38 a3 68 15 39
       6.4185886e-05 0.00018641139 8.1919265e-05 0.00014248728
000260 f5 b1 5a 38 8f 79 67 37 eb a9 0c 38 67 6c 73 38
       5.2140986e-05 1.37969755e-05 3.353685e-05 5.8036672e-05
000270 65 70 0e 38 b6 38 03 38 7a 3b 0a 38 0e 96 c3 37
       3.3960114e-05 3.128565e-05 3.2957156e-05 2.3315686e-05
000280 68 dd e7 37 d7 5c 07 38 2c 0b 44 38 e5 98 09 38
       2.7640446e-05 3.2272972e-05 4.6740446e-05 3.280574e-05
000290 8d 7a e7 37 d1 c7 25 38 94 05 e8 37 57 a3 08 38
       2.7594413e-05 3.952516e-05 2.7659153e-05 3.257705e-05
0002a0 a5 58 25 38 ae 00 1f 38 51 5e f2 34 0e 85 12 35
       3.9421622e-05 3.7909187e-05 4.5144637e-07 5.458286e-07
0002b0 17 4c d1 34 af 08 60 34 90 0a 07 34 ad ec 90 34
       3.8984646e-07 2.0864785e-07 1.2576697e-07 2.6994294e-07
0002c0 7a eb 25 34 2c b8 ca 34 d0 f9 f8 32 85 f6 68 33
       1.5452488e-07 3.7759435e-07 2.8984601e-08 5.4240918e-08
0002d0 69 27 ba 33 6d a4 28 34 7d 8b 9b 33 50 56 14 33
       8.6684686e-08 1.5706037e-07 7.243123e-08 3.4537436e-08
0002e0 98 ab de 33 b0 fb d5 33 40 5a 1b 33 9e 42 b2 33
       1.0368893e-07 9.964367e-08 3.617083e-08 8.3008885e-08
0002f0 e8 40 20 33 dc b7 38 33 9f f4 5c 33 33 27 e6 33
       3.7311935e-08 4.3008058e-08 5.1445223e-08 1.071734e-07
000300 ce 96 82 33 e2 32 dd 32 12 38 39 33 f9 4d 42 34
       6.081028e-08 2.5750925e-08 4.3124665e-08 1.8096024e-07
000310 bf 9b 86 33 98 cd 03 33 78 97 79 33 39 63 85 33
       6.268191e-08 3.06878e-08 5.811259e-08 6.2113436e-08
000320 46 f8 fb 32 bb 14 dd 32 a2 dc 05 33 69 fd 26 33
       2.9333147e-08 2.5737213e-08 3.116714e-08 3.8880362e-08
000330 c7 89 45 33 7f e1 c2 32 62 4a fc 33 26 b6 08 34
       4.5992945e-08 2.2687116e-08 1.17481946e-07 1.2732252e-07
000340 15 5e f7 33 48 1e 37 33 8a e4 5b 33 ac d6 ac 32
       1.1518947e-07 4.263555e-08 5.1197766e-08 2.0121057e-08
000350 5a 73 0e 34 d0 31 34 34 94 c1 fe 33 3a 77 b0 33
       1.3266745e-07 1.6781928e-07 1.1863008e-07 8.217326e-08
000360 7e 65 6a 34 a3 f6 30 35 79 09 63 33 d3 de 18 34
       2.1829871e-07 6.5924013e-07 5.286117e-08 1.4237166e-07
000370 31 c6 cc 34 75 0e 0e 35 c5 47 e9 33 5d da 9b 33
       3.8142164e-07 5.292016e-07 1.0862963e-07 7.25747e-08
000380 27 be 05 34 6b dc 72 34 be a7 c7 33 16 4f 5a 33
       1.2455767e-07 2.2618194e-07 9.297172e-08 5.082901e-08
000390 7d 60 36 34 fd 3d ee 33 77 1a fc 32 06 29 e1 33
       1.6985173e-07 1.1094014e-07 2.9348696e-08 1.0484841e-07
0003a0 01 80 08 34 ca 8a 70 33 5b 95 06 33 45 f5 e8 32
       1.2712555e-07 5.6005582e-08 3.1335144e-08 2.711989e-08
0003b0 04 a3 b6 32 06 39 7f 33 5f 5b ba 32 3d 56 09 33
       2.126172e-08 5.9423677e-08 2.16948e-08 3.197623e-08
0003c0 e2 a1 a4 34 94 17 4d 34 a3 7f dc 33 08 9b 46 34
       3.0665166e-07 1.910069e-07 1.0267765e-07 1.8496587e-07
0003d0 1a 49 26 34 6a d1 7f 34 58 03 ec 34 02 0f 2f 35
       1.5486549e-07 2.382491e-07 4.3960858e-07 6.521442e-07
0003e0 7a a4 ba 34 c8 3a 14 35 68 b2 a7 34 9f b5 c7 34
       3.4764872e-07 5.5219834e-07 3.1235982e-07 3.7198785e-07
0003f0 d1 7c d0 34 49 f9 9a 34 52 8b c2 34 4d 5c af 34
       3.8833835e-07 2.8866114e-07 3.6236685e-07 3.2663448e-07

exp_avg f4 [64]
000000 3f cd 12 ba 15 69 88 38 cc 57 dd 37 f6 cd f5 37
       -0.0005600042 6.5045584e-05 2.6386137e-05 2.9302184e-05
000010 9f c0 5f ba c4 a2 f2 b5 6f cd 3d 39 be cb da b8
       -0.00085354777 -1.8077776e-06 0.00018100975 -0.00010433
000020 4a cd 1d b9 3e fb f0 b8 00 df ac 39 c5 f3 2f b9
       -0.00015049163 -0.00011490889 0.00032972544 -0.00016780112
000030 1c 54 3d b9 88 0d 2a 38 42 e3 81 39 53 ff aa 3a
       -0.00018055778 4.054376e-05 0.00024774118 0.0013046063
000040 40 e7 4b 3a f0 a0 97 b8 d1 74 89 b9 29 3a be 38
       0.00077782944 -7.230218e-05 -0.0002621771 9.070739e-05
000050 8a 18 cf 38 a8 46 16 39 fb 8c 2a ba 91 39 96 36
       9.8751e-05 0.00014331436 -0.0006505993 4.47705e-06
000060 ea f5 9c 3a 26 ec d4 39 dd 5c 78 b9 1b 3f d0 3a
       0.0011975144 0.00040611735 -0.00023685717 0.0015887948
000070 d8 91 d5 b9 70 f8 e5 b9 d7 d3 b6 b9 82 fe e1 39
       -0.00040735188 -0.00043863384 -0.00034871578 0.00043104967
000080 89 48 9a b9 9a ff 61 ba 8d 51 47 ba e9 99 5d 39
       -0.00029427212 -0.00086211564 -0.00076033996 0.00021133538
000090 2e 86 09 b8 01 a8 42 b8 b0 3e 58 b9 15 60 db 39
       -3.278831e-05 -4.640967e-05 -0.00020622718 0.00041842522
0000a0 83 2d 72 39 3a 59 b5 b9 22 31 8e ba 4b 01 5e ba
       0.00023095873 -0.0003458949 -0.0010848383 -0.00084688206
0000b0 f5 68 a0 3a e9 91 0d 39 5d 38 86 b9 9b 56 0a 39
       0.0012238311 0.00013501164 -0.00025600466 0.00013192969
0000c0 e9 29 2c 38 f0 88 3c b9 f9 09 ba b9 d8 7d 08 ba
       4.1047027e-05 -0.0001798009 -0.00035484115 -0.00052067405
0000d0 06 13 33 38 c9 48 9f 3a 1a 41 17 3a 42 2b ee b9
       4.2694643e-05 0.0012152429 0.0005769894 -0.00045427127
0000e0 ea 5e c0 39 3a 85 47 3a 69 e7 e8 b9 4f 28 31 ba
       0.0003669181 0.00076111 -0.00044422902 -0.00067580206
0000f0 7d be 9e ba d9 5f 4c 38 1f be e5 b8 0d 77 46 3a
       -0.0012111213 4.8726655e-05 -0.00010954984 0.00075708405

exp_avg_sq f4 [64]
000000 42 93 42 37 53 a6 1a 34 f3 f4 fc 36 df 7e 51 37
       1.1597587e-05 1.4402876e-07 7.538701e-06 1.248691e-05
000010 13 2b b2 37 8b 2c fe 34 03 f1 9d 36 4c b2 39 37
       2.1239312e-05 4.7343596e-07 4.707022e-06 1.1068372e-05
000020 53 62 97 36 32 95 dc 36 03 fc 48 37 45 cb 10 37
       4.511597e-06 6.5738795e-06 1.1979605e-05 8.630396e-06
000030 39 56 4b 37 17 25 50 36 d2 64 d6 36 8b 51 33 38
       1.2119818e-05 3.1016004e-06 6.389434e-06 4.275287e-05
000040 30 9d 45 37 b6 33 27 37 3d ba 4d 36 65 94 01 36
       1.1778713e-05 9.966016e-06 3.0655785e-06 1.9308875e-06
000050 27 30 1d 36 f0 dd ae 35 3d 26 93 36 de 20 41 36
       2.3422851e-06 1.3028603e-06 4.385393e-06 2.8778372e-06
000060 b1 76 88 37 dc 7e 4f 36 37 a7 b7 36 93 89 59 37
       1.6267733e-05 3.0919246e-06 5.4732914e-06 1.2966239e-05
000070 02 14 8c 37 24 3a 47 37 9d 4c 4b 36 63 fc 55 36
       1.6698617e-05 1.1874861e-05 3.0293952e-06 3.1886382e-06
000080 18 e8 8d 36 f0 f1 96 36 a8 5a 7b 36 ac d2 6d 37
       4.2291467e-06 4.4985136e-06 3.7454683e-06 1.4175352e-05
000090 95 2a 07 37 b2 c2 79 37 ee 22 13 37 01 c8 28 37
       8.056541e-06 1.4886888e-05 8.7700155e-06 1.0060147e-05
0000a0 fc b5 14 36 ce 8d a5 38 c2 42 d4 36 4f 14 3c 37
       2.2159647e-06 7.894226e-05 6.325864e-06 1.1210402e-05
0000b0 77 96 5a 37 6a b7 03 35 b3 f7 66 36 73 8a 6a 36
       1.3028845e-05 4.9068205e-07 3.441685e-06 3.4949305e-06
0000c0 a4 8e 18 37 f8 46 8a 36 c6 04 54 36 37 43 cc 36
       9.093117e-06 4.1209823e-06 3.159324e-06 6.0874986e-06
0000d0 b2 b8 8a 36 3f ff 83 38 0c 03 6a 37 c3 7b 89 37
       4.134222e-06 6.29411e-05 1.3948196e-05 1.6389304e-05
0000e0 ed fa f3 36 b9 c7 2d 37 06 30 6a 37 b0 dd 29 37
       7.271176e-06 1.0358105e-05 1.3958668e-05 1.0124801e-05
0000f0 10 cf 2a 37 4e 3b 87 36 89 a1 4d 36 b7 2e 62 37
       1.0181e-05 4.0302175e-06 3.0641406e-06 1.3481526e-05
