data_demos/b1_models/z_r12r13_21_2021.06.27_held_in_calib.nwb_FFNN_20240604_092705.pt (torch, 289561 bytes, 18 tensors)

layers.0.weight f4 [64, 170]
0	0x3d018d1e	0.03162872
1	0xbe298761	-0.16555549
2	0x3d9037d5	0.07041899
3	0xbd1524cd	-0.03641205
4	0x3e2bc057	0.1677259
5	0x3d993d34	0.07482377
6	0xbda7e822	-0.08198573
7	0x3d4b4382	0.049624927
8	0x3d765d0a	0.060147323
9	0xbd3d8d8f	-0.04627758
10	0xbc85694e	-0.016285565
11	0x3de5d596	0.11222379
12	0x3e5fb940	0.21848011
13	0x3d8dbacd	0.06920395
14	0xbdcc1d29	-0.09966499
15	0xbd758407	-0.059940364
16	0x3d58ae01	0.052900318
17	0xbd7a7591	-0.061147276
18	0xbe12d490	-0.14338899
19	0xbe0af14a	-0.13568607
20	0xbe061637	-0.13094412
21	0xbe0f1cac	-0.13975781
22	0xbeb41317	-0.35170814
23	0xbe64b5aa	-0.22334924
24	0x3cf450d8	0.029823706
25	0xbe240baf	-0.16020082
26	0x3c425a66	0.011862373
27	0xbb221ad6	-0.0024735234
28	0x3d76926f	0.060198244
29	0xbe065f9d	-0.13122411
30	0xbc90b0e4	-0.017662473
31	0x3cabc1c6	0.020966422
32	0xbc7dba77	-0.015486351
33	0xbf039745	-0.51402694
34	0xbd939b1c	-0.07207319
35	0x3cf926fa	0.030414093
36	0xbdb3c155	-0.087771095
37	0xbe1634dd	-0.14668603
38	0xbeb190f8	-0.34680915
39	0xbe57ce6f	-0.21074842
40	0xbedbde8a	-0.4294322
41	0xbf315f1c	-0.6928575
42	0x3e1c48a1	0.1526208
43	0xbe3106ed	-0.17287798
44	0x3e188f7a	0.14898482
45	0x3da0e26e	0.07855688
46	0x3e4004ac	0.18751782
47	0xbeb90bf9	-0.36141947
48	0xbd7feb81	-0.062480453
49	0xbe922321	-0.28542426
50	0x3dd3eaf8	0.10347551
51	0xbe955df3	-0.2917324
52	0x3d489d16	0.048977934
53	0x3d2a34a3	0.041554105
54	0x3e352d96	0.17693171
55	0xbf0dfb9c	-0.5546205
56	0x3dca9ec4	0.098935634
57	0x3dceccfe	0.10097693
58	0x3e0a44ca	0.13502803
59	0xbc668ca0	-0.014071614
60	0x3e13ccfb	0.14433663
61	0xbe06ba82	-0.13157085
62	0x3dbf3dc0	0.0933795
63	0xbec02172	-0.37525517
64	0x3dbb199e	0.091357455
65	0xbe8163ba	-0.25271398
66	0x3b2fce44	0.0026825825
67	0xbd92833f	-0.071539395
68	0xbe8dc1d0	-0.2768693
69	0xbe8ba218	-0.27272105
70	0x3dfe53df	0.12418341
71	0xbe87eb4e	-0.2654671
72	0xbeac8783	-0.33697137
73	0xbe092419	-0.13392676
74	0xbe18b2ba	-0.14911929
75	0xbdcbe052	-0.09954895
76	0xbd86dd67	-0.06585198
77	0xb9f40132	-0.00046540197
78	0x3d199a08	0.03750041
79	0xbe0ff2c9	-0.14057459
80	0x3e0abef5	0.13549407
81	0x3dd06ae7	0.1017664
82	0x3cd7bae3	0.026334232
83	0x3e4b448b	0.19850366
84	0x3e6095f2	0.219322
85	0x3e1b2f8b	0.15154855
86	0x3e011f86	0.12609681
87	0x3e19e241	0.15027715
88	0x3e7bc786	0.24587831
89	0x3ed3a35f	0.4133558
90	0x3dbf2ed0	0.09335101
91	0xbeda0eb6	-0.4258935
92	0x3e1a7539	0.1508378
93	0xbe2d854c	-0.1694538
94	0x3e5972b3	0.2123516
95	0xbf26be6d	-0.65134317
96	0xbd85b92e	-0.06529461
97	0xbf137749	-0.5760389
98	0x3c8171e6	0.015801381
99	0xbebe985e	-0.37225622
100	0xbe0c4415	-0.13697846
101	0xbee826c0	-0.45342064
102	0xbde690af	-0.11258065
103	0xbd712772	-0.05887551
104	0xbb3ae3ba	-0.0028517083
105	0xbd04587b	-0.032310944
106	0xbe893d06	-0.2680437
107	0x3dd04be4	0.10170725
108	0xbed4a3db	-0.41531262
109	0x3e725431	0.23664929
110	0xbdc79e62	-0.09747006
111	0x3e7ee6c7	0.24892722
112	0xbe897f7c	-0.26855075
113	0xbf26d6f3	-0.65171736
114	0xbf0ce8bd	-0.5504263
115	0x3dd71480	0.10501957
116	0xbf1c69e6	-0.6109909
117	0xbedf5eeb	-0.43627104
118	0x3e379079	0.17926206
119	0xbf1a521b	-0.60281533
120	0xbef042e5	-0.46926036
121	0xbe4bc5d5	-0.19899686
122	0x3d055672	0.032553144
123	0xbf3e76ab	-0.7439982
124	0xbd765896	-0.060143076
125	0xbed4a529	-0.41532257
126	0x3e813654	0.25236762
127	0x3e418189	0.1889707
128	0xbe8d76d4	-0.2762972
129	0x3d83e992	0.064410344
130	0x3e8b0788	0.27154183
131	0x3d9ff7d3	0.078109406
132	0x3e1f1961	0.15537025
133	0x3d5121af	0.051057514
134	0x3e943a46	0.2895071
135	0xbd7dd04a	-0.061966218
136	0xbc4c7866	-0.012479877
137	0x3e897b13	0.2685171
138	0x3eb086a7	0.34477732
139	0x3e1b0ae2	0.1514087
140	0x3dab3b4d	0.0836092
141	0x3e522f16	0.20525774
142	0x3e9830e3	0.29724798
143	0x3e912cb9	0.28354433
144	0xbd28b2d8	-0.041186184
145	0x3df1ba62	0.11803128
146	0x3db6c474	0.08924189
147	0x3e109eb4	0.1412304
148	0xbd1f8bcf	-0.03895169
149	0x3e00a615	0.12563355
150	0xb9658e26	-0.00021892096
151	0x3d0fe846	0.035133623
152	0x3c625286	0.01381362
153	0x3e860d1f	0.26181886
154	0xbc0ec285	-0.008713369
155	0x3deb5df6	0.11492531
156	0x3e459ba4	0.19297653
157	0x3c9ee3a0	0.01939565
158	0x3e2a253f	0.16615771
159	0x3d915650	0.07096541
160	0x3cbae406	0.022813808
161	0x3d263221	0.04057515
162	0x3e9ac332	0.30227047
163	0x3d85cb41	0.06532908
164	0x3e443f02	0.1916466
165	0x3d94e32b	0.07269891
166	0xbab69153	-0.0013928808
167	0x3df6832a	0.12036736
168	0x3e6249f0	0.22098517
169	0x3eb868d6	0.36017483
170	0xbe9db220	-0.3079996
171	0x3c1db8a9	0.009626546
172	0xbcd60fba	-0.026130546
173	0x3d930e2f	0.0718044
174	0xbdc1dd28	-0.0946601
175	0x3e2b166c	0.16707772
176	0xbd8412fe	-0.06448935
177	0xbda7dd60	-0.08196521
178	0xbdec6f7d	-0.11544702
179	0x3de41a28	0.111378014
180	0x3d495921	0.049157266
181	0x3d558b72	0.05213494
182	0x3de0a44c	0.10968837
183	0x3dded8e0	0.108812094
184	0xbc289d53	-0.010291415
185	0xbc4e280d	-0.012582791
186	0x3e938296	0.28810567
187	0x3eafb3cc	0.34316862
188	0xbc93544a	-0.017984528
189	0x3d8285d1	0.0637318
190	0x3d4793c3	0.0487249
191	0x3e0bdc48	0.1365825
192	0xbda4044f	-0.08008634
193	0x3e67e5d5	0.22646268
194	0x3e5cc3b3	0.21559028
195	0x3e08fb6d	0.13377161
196	0xbe5523bd	-0.20814414
197	0x3d26453e	0.04059338
198	0xbcf602bc	-0.0300306
199	0xbd62a2be	-0.055330984
200	0xbe897cf8	-0.26853156
201	0xbd7581dd	-0.0599383
202	0x3e42c88f	0.1902182
203	0x3d314926	0.04328265
204	0xbcf225b5	-0.029558996
205	0x3d7b7a3d	0.061395872
206	0xbc9950c5	-0.018715272
207	0x3d4039be	0.046930067
208	0x3d729dee	0.059232645
209	0x3e81ae49	0.25328282
210	0x3dde3813	0.10850539
211	0x3e2de514	0.16981918
212	0xbe8089ea	-0.2510522
213	0xbe3584a1	-0.17726375
214	0xbb057510	-0.0020363964
215	0x3d8b5b33	0.06804504
216	0x3e58d717	0.211758
217	0xbc5deb3f	-0.013544857
218	0x3e276f35	0.16351016
219	0x3e98bdd9	0.29832342
220	0x3e2ce031	0.16882397
221	0x3d1b41f9	0.037904713
222	0x3c84558d	0.016154075
223	0x3d6e5052	0.05818207
224	0x3e0d9a51	0.13828398
225	0xbdc6d3a5	-0.09708337
226	0xbeae0044	-0.33984578
227	0xbe6cee9d	-0.23137899
228	0xbcec50bd	-0.028847093
229	0xbd94e277	-0.07269757
230	0xbe1fb26e	-0.1559541
231	0xbe58dc00	-0.21177673
232	0xbe11252f	-0.1417434
233	0xbe01a4f7	-0.12660585
234	0xbe895318	-0.26821208
235	0xbe4f3251	-0.20234038
236	0x3e27df44	0.16393763
237	0x3d9f98e3	0.07792833
238	0x3dfb53dc	0.12271854
239	0x3d980802	0.07423402
240	0x3e141403	0.14460759
241	0x3e41b43a	0.18916407
242	0xbde35b76	-0.11101429
243	0xbd3b4f07	-0.045729663
244	0x3e778fd2	0.24175957
245	0x3dea2272	0.11432351
246	0xbec11716	-0.37712926
247	0x3d4d19a1	0.05007327
248	0x3e5c8f85	0.21539123
249	0x3db62580	0.08893871
250	0xbdb18feb	-0.08670028
251	0x3ec0aefd	0.37633505
252	0xbef6a08e	-0.48169369
253	0x3ecfe82d	0.40606824
254	0xbecaaf4b	-0.39586863
255	0xbcce17ef	-0.025157897

layers.0.bias f4 [64]
0	0xbf04e473	-0.51911086
1	0xbf1101e9	-0.5664354
2	0x3f21005d	0.6289118
3	0x3f12d17c	0.573509
4	0x3f25c576	0.64754426
5	0x3f914c03	1.1351322
6	0x3fdae424	1.7100873
7	0x3f92db96	1.1473262
8	0x3cd77c1e	0.0263043
9	0xc04493de	-3.071525
10	0x40466a28	3.1002293
11	0x3f2e45d7	0.6807532
12	0x3f402be7	0.7506699
13	0xbdea1b7f	-0.11431026
14	0xbfd32ba6	-1.6497695
15	0xbfeb6747	-1.8390893
16	0xc00dfd05	-2.218568
17	0x3f264cd0	0.64960957
18	0x3febfd52	1.8436682
19	0x3e037470	0.12837386
20	0x3fc791af	1.5591334
21	0xc05ffe24	-3.4998865
22	0x400ce708	2.201601
23	0x3ee284f0	0.44242048
24	0x3eef061c	0.4668435
25	0xbfdf9a3d	-1.7468945
26	0x3fb7c48f	1.435686
27	0xc01b4f1e	-2.426704
28	0x3f253a4f	0.64542097
29	0x408116c2	4.034028
30	0x40243fec	2.5664015
31	0x3f7cb599	0.98714596
32	0xbf419272	-0.7561408
33	0x3d0aa4a5	0.033848424
34	0xbe23b43d	-0.15986724
35	0x3fc02ee0	1.5014305
36	0x3f9606db	1.1720842
37	0xc0167bc9	-2.3513052
38	0xbf45927f	-0.7717666
39	0xc04af456	-3.171163
40	0x40122871	2.2837183
41	0x4008d05b	2.137717
42	0xbf284846	-0.6573528
43	0xbc9b5302	-0.01896048
44	0x40483dd0	3.1287727
45	0x3f334957	0.7003378
46	0xbfe69033	-1.8012756
47	0x408ec143	4.4610915
48	0xc01db84a	-2.464373
49	0xc0084971	-2.1294825
50	0x40459e72	3.0877957
51	0x4071b7ef	3.7768514
52	0xbfaa7a09	-1.3318492
53	0x40067c19	2.1013243
54	0x3fe42e99	1.782672
55	0x3d37eb13	0.04490192
56	0x3fadeaa0	1.3587227
57	0xc0117cb0	-2.2732353
58	0x3ec96251	0.39332822
59	0x3fa43e85	1.283158
60	0x3fcac5a0	1.584156
61	0x3dd5eace	0.10445176
62	0x4001c8ad	2.0278733
63	0x3fa21b6b	1.2664617

layers.1.weight f4 [64, 64]
0	0xbe203887	-0.15646563
1	0x3dfacd37	0.12246173
2	0xbd641489	-0.055683646
3	0xbc9df39f	-0.019281207
4	0x3e5ccf45	0.21563442
5	0x3cff675e	0.031177219
6	0xbd9c2209	-0.07623679
7	0x3cd401e9	0.025879817
8	0xbdd96529	-0.10614998
9	0x3d8e08d5	0.06935278
10	0xbd0ad000	-0.03388977
11	0x3da5f6c2	0.08103706
12	0xbe5960c1	-0.21228315
13	0x3e2dccdc	0.16972679
14	0x3d28980a	0.04116062
15	0x3e0b5e45	0.1361018
16	0x3e27f0c5	0.1640044
17	0x3dc91d2f	0.098200195
18	0x3c8331be	0.01601493
19	0xbd3b2100	-0.045685768
20	0xbd70743a	-0.058704592
21	0x3dcea558	0.100901306
22	0xbd884b07	-0.06654935
23	0xbd46a8bb	-0.048500758
24	0x3c96bd4a	0.018400807
25	0x3db9a032	0.09063758
26	0xbd7a7b30	-0.061152637
27	0x3c352c08	0.011057861
28	0x3c8b9393	0.017038142
29	0xbd867c4a	-0.06566675
30	0xbdc5270e	-0.0962659
31	0x3de58e83	0.112088226
32	0xbddbf15b	-0.10739394
33	0xbd4c8a7a	-0.04993675
34	0x3abd47a4	0.0014440906
35	0xbd9a163a	-0.07523771
36	0xbe901633	-0.28141937
37	0x3e15d032	0.14630201
38	0xbd88a6c1	-0.06672431
39	0x3d5be4fc	0.053685173
40	0xbe0fbdd3	-0.14037256
41	0xbca6d60d	-0.02036574
42	0x3dc639e6	0.09679012
43	0xbd82942f	-0.0637592
44	0xbdf25c25	-0.118339814
45	0x3d58475c	0.05280243
46	0x3cd34fe5	0.025794933
47	0xbd77532a	-0.060382046
48	0xbd6f5803	-0.058433544
49	0x3e13d4e3	0.14436679
50	0xbd4cc8eb	-0.049996298
51	0xbce6e4fd	-0.028185362
52	0xbd89f3cb	-0.06735953
53	0xbb307115	-0.002692287
54	0xbe0d43d7	-0.1379541
55	0xbd8e1a8e	-0.06938659
56	0x3dd0764c	0.10178813
57	0x3decb863	0.115586065
58	0x3db20cdc	0.08693859
59	0x3e2e9633	0.17049484
60	0xbd6f606d	-0.05844157
61	0xbdaa1bf7	-0.08306115
62	0xbdb4abe3	-0.08821847
63	0x3da515bb	0.080607854
64	0x3f334cf3	0.7003929
65	0x3cb62257	0.022233171
66	0x3ec9da36	0.39424294
67	0x3c6fa809	0.014627465
68	0xbe9ed38a	-0.31020766
69	0x3d0a9d71	0.033841554
70	0xbd2dedf4	-0.042463258
71	0x3efa88d8	0.48932528
72	0x3d1ad5b9	0.037801478
73	0xbdb57e5a	-0.0886199
74	0xbe0b5dfd	-0.13610072
75	0x3e509f53	0.20373277
76	0x3e8cea7f	0.27522656
77	0xbe65b61a	-0.22432747
78	0xbd91be49	-0.07116372
79	0xbe16bd35	-0.14720614
80	0xbba18694	-0.004929373
81	0x3ea8409b	0.3286179
82	0x3e14c5af	0.14528535
83	0xbe15d1cd	-0.14630814
84	0xbe4d17cd	-0.2002861
85	0xbf69450c	-0.9112098
86	0xbe0db6c7	-0.13839255
87	0x3f3d132a	0.7385737
88	0x3c077122	0.008266719
89	0xbe02dddd	-0.12779947
90	0x3d747115	0.059678156
91	0xbe7b61cc	-0.24549025
92	0xbe1357b5	-0.14388926
93	0xbeb3bd06	-0.3510515
94	0xbe3531fe	-0.17694852
95	0xbe0a857d	-0.13527484
96	0x3ca8db6f	0.020612447
97	0xbef7970a	-0.4835742
98	0x3e9ee48e	0.31033748
99	0xbe6bf586	-0.23042879
100	0x3e1ae28e	0.15125486
101	0xbcebdd8b	-0.028792163
102	0xbc0aec41	-0.008479179
103	0xbecc0cb3	-0.3985344
104	0x3e735bd5	0.237655
105	0xbdca9d72	-0.098933116
106	0xbe3491bd	-0.1763372
107	0xbe1d4994	-0.15360099
108	0xbd2b8b80	-0.041881084
109	0xbeb28f30	-0.34874868
110	0xbd99cc21	-0.075096376
111	0xbe824a3a	-0.25447255
112	0xbe5fbeb7	-0.21850096
113	0xbd6484c4	-0.055790678
114	0x3cc006b5	0.023440698
115	0xbdfb3588	-0.1226607
116	0xbdc9d46c	-0.098549694
117	0xbe0ba4a9	-0.13637032
118	0xbe8274ff	-0.25479886
119	0x3daa673a	0.0832047
120	0xbe3b33d0	-0.18281484
121	0xbd270ea8	-0.04078546
122	0xbd6545ee	-0.055974893
123	0x3d328948	0.043587953
124	0xbe3e2829	-0.18570007
125	0xbe576dde	-0.21038005
126	0xbdc5b056	-0.09652774
127	0x3f2603ab	0.64849347
128	0x3db7d8b3	0.08976879
129	0x3d4be7b7	0.049781527
130	0x3e561989	0.20908178
131	0xbc495232	-0.012287663
132	0x3ec89173	0.3917347
133	0x3e1615e4	0.14656788
134	0x3e007b76	0.12547097
135	0x3d88ed04	0.06685832
136	0x3bb61cee	0.005557648
137	0xbe045610	-0.12923455
138	0xbe341f4f	-0.17590068
139	0x3ebd5109	0.36975887
140	0x3ea70cbf	0.32626912
141	0x3e9f5883	0.31122217
142	0x3e40d7b1	0.1883228
143	0xbe8df5d9	-0.2772663
144	0xbced65dd	-0.028979236
145	0xbe554d05	-0.20830162
146	0xbe708d6e	-0.23491451
147	0xbdf8d1ce	-0.12149392
148	0xbdf30ae1	-0.11867309
149	0xbf8a6402	-1.081177
150	0xbe39c58b	-0.18141763
151	0x3e1d9ab5	0.15391047
152	0x3e31038a	0.17286506
153	0xbdb9a074	-0.09063807
154	0x3d069132	0.032853313
155	0xbe419ec1	-0.18908216
156	0xbe27638e	-0.16346571
157	0xbe7045b0	-0.23464084
158	0xbe7539db	-0.23947851
159	0x3d196999	0.03745422
160	0xbd924ab9	-0.071431585
161	0xbe620dc1	-0.22075559
162	0xbd540e4d	-0.05177145
163	0xbe3201fd	-0.17383571
164	0x3e9463fa	0.28982526
165	0xbe627f13	-0.22118787
166	0xbd499cd9	-0.049221847
167	0xbeab0674	-0.3340336
168	0x3f045fd2	0.5170871
169	0x3e3b27ea	0.18276945
170	0x3d5021b2	0.050813384
171	0xbe15b710	-0.14620614
172	0xbe80ce28	-0.25157285
173	0x3e83e910	0.2576375
174	0xbc4a7478	-0.01235687
175	0xbe88eacf	-0.26741645
176	0xbe1f00bf	-0.15527628
177	0xbdeba30b	-0.11505707
178	0x3da1869e	0.07887004
179	0xbe717d12	-0.23582867
180	0x3e180b9e	0.14848182
181	0xbddd9697	-0.10819738
182	0x3e9fc173	0.31202278
183	0xbe337425	-0.17524774
184	0x3e65e950	0.22452283
185	0xbc33a06c	-0.0109635405
186	0xbd0213f9	-0.03175733
187	0x3dabfe79	0.08398146
188	0xbe0d7cb6	-0.13817105
189	0x3e3a2edc	0.18181938
190	0xbd021771	-0.031760637
191	0x3e76180d	0.24032612
192	0xbe8f57c0	-0.27996635
193	0xbd214e42	-0.039381273
194	0x3d2184ac	0.039433166
195	0x3e851df8	0.25999427
196	0xbc0ed015	-0.008716603
197	0x3ddbcd55	0.10732523
198	0xbe3db3d3	-0.18525629
199	0xbe6de57b	-0.23232071
200	0xbdfa5053	-0.12222352
201	0xbd659cb8	-0.05605766
202	0xbc98eedc	-0.018668585
203	0x3ebb8159	0.36622122
204	0xbddf5784	-0.10905364
205	0x3d8fffd4	0.07031217
206	0xbe12d41e	-0.14338729
207	0x3e537546	0.20650205
208	0xbd70f4ba	-0.05882714
209	0x3e96655f	0.29374215
210	0x3d314d0d	0.043286372
211	0xbdb29991	-0.08720697
212	0xbe08cc28	-0.1335913
213	0xbdd89e5d	-0.105770804
214	0xbda9efbd	-0.082976796
215	0x3d1117ef	0.035423215
216	0x3e89eeec	0.26940095
217	0xbe1cf8c4	-0.15329272
218	0x3ef1f291	0.47255376
219	0xbe1f67f7	-0.15567003
220	0xbce206c2	-0.027591113
221	0xbbc39497	-0.005968641
222	0xbdbde0bd	-0.09271381
223	0xbec50f28	-0.38488126
224	0xbe211d2d	-0.15733786
225	0x3e436836	0.19082722
226	0x3e7771b4	0.24164468
227	0xbd36b8ee	-0.044609956
228	0xbe805823	-0.25067243
229	0x3d7d613d	0.06186031
230	0xbe3600f0	-0.17773795
231	0x3cb769d6	0.022389334
232	0xbef7b72b	-0.48381934
233	0x3c821d57	0.015883131
234	0xbe39944b	-0.18122976
235	0xbe5cdd4f	-0.21568798
236	0xbde587ac	-0.11207518
237	0x3ee635dc	0.44962966
238	0xbd526f3d	-0.051375616
239	0xbd91e103	-0.07122996
240	0x3dfb9c1e	0.12285636
241	0x3cad6aff	0.021169184
242	0xbe09cf46	-0.13457975
243	0xbdd9d4db	-0.10636302
244	0x3ea328ea	0.31867152
245	0xbc6eb66f	-0.014569863
246	0xbe69ac1f	-0.22819565
247	0xbe6e183e	-0.23251435
248	0xbe235107	-0.15948878
249	0xbd431fd2	-0.047637768
250	0xbd0a3442	-0.033741243
251	0x3e348d53	0.17632036
252	0xbca1ac9c	-0.019735627
253	0xbdcbc310	-0.099493146
254	0xbd8e0955	-0.06935374
255	0x3dabbffe	0.08386229

layers.1.bias f4 [64]
0	0xbef86862	-0.48517138
1	0xbfce2735	-1.6105715
2	0xbef25a18	-0.4733436
3	0xbfc45b5d	-1.5340382
4	0xbe9dc2da	-0.30812722
5	0xc0415054	-3.0205278
6	0xbce3ecb9	-0.02782284
7	0xbe222529	-0.15834488
8	0xbeabda7d	-0.3356513
9	0xbf30b587	-0.6902699
10	0xc04054e2	-3.0051808
11	0xbfba1f6d	-1.454084
12	0xbebccb3a	-0.368738
13	0xbf5eca61	-0.87027556
14	0xc0318251	-2.773579
15	0xbe193923	-0.14963202
16	0xbfea7327	-1.8316392
17	0xbfacb771	-1.3493482
18	0xbcdb1104	-0.026741512
19	0xc03d3efa	-2.9569688
20	0x3c268561	0.010163636
21	0xbee102c6	-0.43947428
22	0xbed8555f	-0.42252633
23	0xc00beb2a	-2.1862283
24	0xbf40ded5	-0.75340015
25	0xbf925b67	-1.1434144
26	0xbf8f5c28	-1.1199999
27	0xbfc4d0f9	-1.5376273
28	0xbe910771	-0.2832599
29	0xbfc3c9c5	-1.529595
30	0xbef98017	-0.48730537
31	0xbe892a00	-0.26789856
32	0xbf91d901	-1.1394349
33	0xbeac0f07	-0.33605215
34	0xbe990c4d	-0.29892197
35	0xbe563005	-0.20916755
36	0xbe533845	-0.20626934
37	0xbe060b40	-0.13090229
38	0xbf5e8256	-0.86917627
39	0xbf345f7a	-0.70458186
40	0xc00c8b73	-2.1960113
41	0xbf442106	-0.7661289
42	0xbf444e40	-0.766819
43	0xbf8d8d83	-1.1058811
44	0xbeb34e24	-0.35020554
45	0xbf7e2ba9	-0.9928537
46	0xbf6c8bee	-0.92401016
47	0xc038c1a6	-2.8868194
48	0xbfa27251	-1.2691137
49	0xbf2985c2	-0.66219723
50	0xc0234eea	-2.5516915
51	0xbf9786de	-1.1838033
52	0xbeed872f	-0.463922
53	0xbf8fe098	-1.1240416
54	0xc00a01d6	-2.156362
55	0xbeb27434	-0.3485428
56	0xbfa46c5b	-1.2845567
57	0xbf9be4d8	-1.2179213
58	0xbf9d6b07	-1.2298287
59	0xbe897820	-0.2684946
60	0xc03a98dc	-2.9155798
61	0x3e82a21b	0.25514302
62	0xbfd32ec4	-1.6498647
63	0xbf6eccfa	-0.9328152

layers.2.weight f4 [128, 64]
0	0x3bbd15fd	0.0057704435
1	0x3c37d318	0.011219762
2	0x3c81b623	0.01583392
3	0x3d0a8ad3	0.0338238
4	0xbc40f90e	-0.011778129
5	0xbcf0b31f	-0.029382287
6	0x3c81c4b4	0.015840866
7	0x3c8e73df	0.017389236
8	0xbc0612d3	-0.008183199
9	0xbcfa34ee	-0.030542817
10	0xbcaaaf39	-0.020835506
11	0xb9b2769f	-0.00034039185
12	0x3ca74f62	0.020423595
13	0xbcbaf156	-0.022820156
14	0x3a8ee787	0.0010902741
15	0xbd1100a1	-0.03540099
16	0xbd14c0be	-0.036316626
17	0xbcdbf899	-0.026851939
18	0xba8071e9	-0.0009799573
19	0xbcbee7d0	-0.023303896
20	0x3ca7b0c8	0.020470038
21	0x3d3449c6	0.04401567
22	0x3ca2f2cc	0.019891165
23	0x3d831309	0.06400115
24	0x3d0b0dcb	0.0339487
25	0x3cc7d3a0	0.024392903
26	0x3c9a873d	0.018863315
27	0xbc83e6e9	-0.016101317
28	0xbd3bfe9c	-0.04589711
29	0xbc7ccf61	-0.015430302
30	0x3cfcae8d	0.030844951
31	0x3c9fa835	0.019489387
32	0x3c0701df	0.008240192
33	0x3d166137	0.036713805
34	0x3cd63412	0.026147876
35	0x3c2bfdd2	0.010497527
36	0x3c3bbba6	0.011458313
37	0x3cfa139a	0.030526925
38	0xbc9efd5a	-0.019407917
39	0x3b1dde9a	0.002408898
40	0x3cabbeb0	0.02096495
41	0xbceb4137	-0.02871762
42	0x3c089188	0.008335479
43	0xbd4eb531	-0.050465766
44	0x3d0ff958	0.035149902
45	0x3c9dd4e9	0.019266563
46	0xbb11d475	-0.0022251878
47	0xbd0ad4bb	-0.03389428
48	0xbc1d9e75	-0.009620299
49	0x3c5cbdf5	0.013473024
50	0xbc8811d7	-0.01661007
51	0xbd8f98a4	-0.07011536
52	0x3bac4f06	0.0052584438
53	0x3cffce91	0.031226428
54	0x3c50ce34	0.012744475
55	0x3d215696	0.039389215
56	0xbb49ac92	-0.0030773026
57	0x3c3461ea	0.011009673
58	0x3bd2ac7c	0.006429253
59	0x3cb5c58a	0.02218892
60	0xbcb4b1f1	-0.022057505
61	0x3b9d4856	0.004799883
62	0xbb0a8444	-0.0021135965
63	0x3c956a08	0.018239036
64	0xbcae7d76	-0.021300059
65	0x3d18b5af	0.037282642
66	0xbc73a2f1	-0.014870391
67	0x3cf2214f	0.029556898
68	0xbd77fc72	-0.060543485
69	0xbb7a43f4	-0.0038187476
70	0xbb56f7e2	-0.0032801558
71	0x3c0aba2c	0.008467238
72	0xbd34c33f	-0.044131514
73	0xbd0918f4	-0.033471063
74	0xbcc94452	-0.02456871
75	0xbca6c242	-0.020356301
76	0x3d094bde	0.03351962
77	0xbb6c8788	-0.0036091525
78	0x3ba6fdc5	0.0050961697
79	0xbda27909	-0.07933242
80	0xbd89caba	-0.0672812
81	0xbd315579	-0.043294404
82	0xbb10909e	-0.0022058855
83	0xbae11cc5	-0.0017174712
84	0x3c163d2d	0.009169859
85	0x3a07949b	0.0005171985
86	0x3b7d21c6	0.0038624867
87	0xbcefc7db	-0.029270103
88	0xbc28aafa	-0.01029467
89	0x3c54f5ac	0.012998026
90	0x3c15d65b	0.009145345
91	0xbd39adf7	-0.04533192
92	0xbd400a0f	-0.046884593
93	0x3d219f45	0.039458532
94	0xbb8ec224	-0.0043566395
95	0x3c3c46f8	0.01149153
96	0xbd331bdd	-0.043727744
97	0x3d53a523	0.05167116
98	0xbb8ca51d	-0.004292144
99	0x3d4ff9f5	0.050775487
100	0xbc74d8ea	-0.0149442945
101	0x3b159ab7	0.0022827813
102	0xbd225833	-0.039634895
103	0xbd1b9ff5	-0.037994344
104	0x3d3b239f	0.045688268
105	0xbda7dcef	-0.081964366
106	0xbc0a6550	-0.008447006
107	0xbc1abec4	-0.009444896
108	0xbbbf73f4	-0.00584268
109	0x3d41d76f	0.047324594
110	0x3ca2dac3	0.019879704
111	0x3b3a7eb8	0.0028456878
112	0xbd534fda	-0.051589824
113	0x3bd0a976	0.0063678576
114	0xba88916b	-0.0010419314
115	0xbd93a1d4	-0.07208601
116	0xbbb76640	-0.005596906
117	0x3d32bf6e	0.043639593
118	0x3d04f2ff	0.0324583
119	0x3bb83a25	0.0056221657
120	0xbadf7ce4	-0.001705077
121	0x3d1564fd	0.036473263
122	0x3c645591	0.013936416
123	0xbc69fb18	-0.014281057
124	0x3d081300	0.033221245
125	0x3b569e5d	0.00327482
126	0x3c9c8838	0.019107923
127	0x3cae0926	0.021244597
128	0x3c247229	0.0100369835
129	0xbcb27ecf	-0.021788983
130	0x3b3e2728	0.0029015038
131	0xbb441098	-0.0029917117
132	0x3a0263be	0.0004973969
133	0xbbca2e83	-0.0061700954
134	0xbca1b04c	-0.019737385
135	0x3c1988fa	0.009371037
136	0x3cac0f14	0.021003284
137	0xbd7e171a	-0.06203375
138	0x3b726ce4	0.0036991173
139	0x3868e00b	5.5521767e-05
140	0x3b222572	0.0024741557
141	0xbc22dca3	-0.009940299
142	0xbb818554	-0.0039526615
143	0xbca824f7	-0.020525439
144	0xbbe237b7	-0.0069036144
145	0x3d18cc5b	0.037304264
146	0x3bf0a206	0.0073435334
147	0xbba79add	-0.0051148967
148	0xbb7f3945	-0.0038944047
149	0xbcb76b66	-0.022390079
150	0x3c301bcb	0.010748814
151	0x3cda2e19	0.02663331
152	0xbc730bcc	-0.014834356
153	0xbcb08b65	-0.021550843
154	0xbcbc071d	-0.02295261
155	0x3cc2dd20	0.023787081
156	0xbcaa2451	-0.02076927
157	0x3d65c64e	0.05609732
158	0x3b874ecf	0.0041292678
159	0x384721da	4.7476824e-05
160	0xbc870a8d	-0.016484523
161	0x3aa6ab70	0.0012715887
162	0x3c443f33	0.0119779585
163	0x3ca136c2	0.01967943
164	0xbb1f21c2	-0.0024281596
165	0x3b836921	0.004010335
166	0xbc806bf6	-0.01567648
167	0x3cb39400	0.021921158
168	0x3c98ea36	0.018666368
169	0x3d0ed2f4	0.03486915
170	0xbd2ba12e	-0.04190176
171	0xbbffe6bc	-0.007809488
172	0x3af55686	0.0018717803
173	0x3b91560b	0.004435306
174	0xbc99b561	-0.018763246
175	0x3c5713da	0.013127292
176	0x3c60cc25	0.013720547
177	0xbca6966b	-0.020335397
178	0x3c98bfd3	0.018646156
179	0xbbb3ec5f	-0.005490824
180	0x3a096f87	0.0005242754
181	0x3d000c67	0.031261828
182	0xbcabbac8	-0.020963088
183	0xbb03ea28	-0.0020128582
184	0xbcb46e87	-0.02202536
185	0xbc742782	-0.0149019975
186	0xbc8c9ffd	-0.017166132
187	0x3c4b8fea	0.0124244485
188	0xbc7fb683	-0.015607479
189	0x3b02e147	0.0019970702
190	0x3c8577fc	0.016292565
191	0xbb6d041e	-0.0036165784
192	0xbd407098	-0.046982378
193	0xbd5f098c	-0.054452464
194	0xbd18a39e	-0.037265413
195	0xbd1924ce	-0.037388615
196	0xbdaee2bc	-0.0853934
197	0x3d59443b	0.053043585
198	0xbd5e438d	-0.05426364
199	0xbd884fc5	-0.0665584
200	0xbd86247b	-0.06549927
201	0xbd02e612	-0.031957693
202	0x3d82b0c6	0.06381373
203	0xbd291707	-0.041281726
204	0x3cdee254	0.027207531
205	0xbd2a40ac	-0.041565582
206	0x3d5d1be8	0.05398169
207	0xbd68b1ad	-0.05681007
208	0xbd513b37	-0.051081862
209	0xbd094d5f	-0.033521052
210	0xbda69042	-0.08132984
211	0x3d6c945a	0.057758667
212	0xbce855c2	-0.028361205
213	0x3ba88506	0.0051428108
214	0xbd7b9035	-0.061416823
215	0xbd6190dd	-0.055069793
216	0xbcbaf7d1	-0.022823246
217	0x3d36547c	0.044514164
218	0xbd523fb2	-0.051330276
219	0xbd907e9d	-0.070553996
220	0xbd1856cf	-0.037192162
221	0xbc8bef3e	-0.017081853
222	0xbd46d94c	-0.048547074
223	0xbd96d5f9	-0.07365031
224	0x3c266785	0.010156517
225	0x3d621ac8	0.05520132
226	0xbd46a4c3	-0.048496973
227	0x3cb512f4	0.022103764
228	0xbd4ec4da	-0.0504807
229	0xbd55d701	-0.052206997
230	0xbd4063e3	-0.04697026
231	0xbd8f2e78	-0.06991285
232	0x3d58e56b	0.052953165
233	0xbd32e7bb	-0.043678027
234	0x3c86e0cd	0.016464615
235	0x3d7bdf48	0.061492234
236	0xbd222d61	-0.039594058
237	0x3cf45579	0.029825913
238	0xbc92afe1	-0.017906131
239	0x3d76e304	0.060275093
240	0xbd564248	-0.052309304
241	0xbd6743f7	-0.0564613
242	0x3d7c15b7	0.061544146
243	0xbd117be1	-0.03551853
244	0xbd7697c9	-0.060203347
245	0x3d804240	0.06262636
246	0xbd104967	-0.035226252
247	0xbd61befa	-0.05511377
248	0x3aa8f5c2	0.0012890624
249	0x3c97f7c3	0.01855076
250	0xbd495c44	-0.049160257
251	0xbd592a86	-0.05301907
252	0x3d2a2a95	0.041544516
253	0xbd81d861	-0.06340099
254	0x3d0a8b41	0.03382421
255	0xbd86ef50	-0.06588614

layers.2.bias f4 [128]
0	0x3fb39d85	1.4032446
1	0x3ffd6161	1.9795343
2	0xbfc6eb9d	-1.5540653
3	0xbf4dbfdf	-0.803709
4	0x3eb531a2	0.3538943
5	0xbfb82bc3	-1.4388355
6	0x3f0e8235	0.5566743
7	0x3ef52361	0.47878554
8	0xc002f90a	-2.0464501
9	0x3fb6d82d	1.4284722
10	0x3fa36d74	1.2767777
11	0xbf9d8f66	-1.2309387
12	0xbf2a3928	-0.66493464
13	0x3f8e63a6	1.112416
14	0xbfd35531	-1.6510373
15	0xbe9da87d	-0.3079261
16	0xbf9a8e4f	-1.2074679
17	0x400bb89a	2.1831422
18	0x3ff1f801	1.890381
19	0xbe45c434	-0.19313127
20	0xbf8b23e9	-1.0870334
21	0x3f6f0173	0.93361586
22	0xc0373702	-2.8627324
23	0xc037f5a1	-2.874367
24	0xc029f52f	-2.6555898
25	0xbf769128	-0.9631524
26	0xbf228e2d	-0.63498193
27	0x3ec7f0a4	0.39050782
28	0x3ef62118	0.48072124
29	0x3fbdb2e7	1.4820222
30	0xbed0aa0d	-0.40754738
31	0xbf88e682	-1.0695345
32	0xbf808b6e	-1.004255
33	0x401ca6e1	2.4476855
34	0xbfe84d2a	-1.8148549
35	0x3fd169e6	1.6360443
36	0xbece0757	-0.40239975
37	0x4025e124	2.5918665
38	0x3f94fc2e	1.1639459
39	0x3f299ba2	0.662531
40	0x3f331ed3	0.6996891
41	0xbfec872e	-1.8478754
42	0x3e3e3c03	0.1857758
43	0x3f12d55b	0.57356805
44	0xbf290031	-0.6601592
45	0x3f680673	0.9063484
46	0x3e8accc6	0.27109355
47	0x3fc6ad29	1.5521594
48	0xbfd65ee2	-1.6747706
49	0xbf5eca07	-0.8702702
50	0x3e990397	0.2988555
51	0xbf4e1523	-0.80501
52	0xc012497f	-2.2857358
53	0xbf0cf534	-0.5506165
54	0x3e044c5f	0.12919758
55	0x3f539d18	0.8266158
56	0x3ed932a8	0.4242146
57	0xbfe57f51	-1.7929479
58	0xbffccbc0	-1.974968
59	0x3f70ec53	0.941106
60	0x3ea6af94	0.3255583
61	0x407768ac	3.8657637
62	0x3ba6e342	0.005093009
63	0x3e78fefd	0.2431602
64	0xbea81b92	-0.32833534
65	0x3eb820c9	0.35962513
66	0x3eaed2c4	0.34145176
67	0x3f003357	0.5007834
68	0xbeef0814	-0.4668585
69	0xbf9604c1	-1.1720201
70	0x3e92bf13	0.28661403
71	0x3f903adf	1.1267966
72	0x3dbe5785	0.09294037
73	0xbf495fab	-0.786616
74	0xc01126a7	-2.2679842
75	0xc02f016d	-2.734462
76	0x3fe04f9b	1.7524294
77	0x3f12452e	0.5713681
78	0x3ec375de	0.38175863
79	0xbed5e5ac	-0.41776788
80	0x3fa17a49	1.2615443
81	0x3f2330b8	0.63746214
82	0xbe16635b	-0.14686339
83	0xbe7f91cc	-0.24957961
84	0x3f9a54cc	1.2057128
85	0x3f70d7a1	0.94079024
86	0x3f6f957d	0.93587476
87	0x3fa8dd89	1.3192607
88	0xb9e40bce	-0.00043496344
89	0xbef1e33e	-0.47243685
90	0xbfa89b27	-1.3172349
91	0x3fb2629c	1.3936343
92	0xbdeef582	-0.11667921
93	0x3db65fc9	0.08904988
94	0xbf560557	-0.836019
95	0xbee6b8c4	-0.4506284
96	0x4035de92	2.8417096
97	0x3f97f4f9	1.1871635
98	0xbfce0fe8	-1.6098604
99	0x3d7749e5	0.060373206
100	0xbfe6b56f	-1.8024119
101	0xbea3f52e	-0.32022995
102	0x3f07f035	0.531009
103	0xbf0650cd	-0.5246704
104	0xbd414c28	-0.04719177
105	0x3ecd707a	0.40124875
106	0xbfeeb050	-1.8647556
107	0x3fcdac5c	1.6068225
108	0xc046a3e7	-3.1037538
109	0x3f8aa6a7	1.0832108
110	0x3f053f68	0.52049875
111	0xbe10216d	-0.14075251
112	0x3f148be2	0.58025944
113	0xc001c940	-2.0279083
114	0xbf0c6a0b	-0.5484931
115	0x3f50f1b2	0.816188
116	0xbc86d346	-0.016458165
117	0xbf904637	-1.1271428
118	0xbe390fc6	-0.18072423
119	0xbde4bf16	-0.11169259
120	0xbea8b353	-0.32949314
121	0xbf466608	-0.7749944
122	0x3f17bd8e	0.5927361
123	0xbec37c38	-0.3818071
124	0x3f480d47	0.7814526
125	0xbe273578	-0.1632899
126	0x3f9cbfe4	1.224606
127	0x400eb2b0	2.2296562

exp_avg f4 [64, 170]
0	0x3b0dc55e	0.0021632533
1	0x3aa161f3	0.0012312516
2	0xbbd2fe00	-0.0064389706
3	0xba139d89	-0.00056310795
4	0xbb447ed5	-0.0029982824
5	0x3a73c9ee	0.0009299804
6	0x3a47e8f7	0.0007625962
7	0xb8211d45	-3.841265e-05
8	0xbb0afb10	-0.0021206774
9	0x3ae1597d	0.0017192807
10	0x3b2f77b5	0.0026774232
11	0x3a6aa236	0.0008950563
12	0xbb436505	-0.002981485
13	0x3aec6f7c	0.0018038596
14	0xbb600b12	-0.0034186286
15	0x38ecfbd1	0.000113002614
16	0xbafb2d12	-0.0019163212
17	0xba8723ec	-0.0010310388
18	0x3b51ff96	0.003204321
19	0xba671ce9	-0.00088162586
20	0xbb8ea307	-0.0043529305
21	0xb9ea0205	-0.00044633463
22	0x3afbbe19	0.0019206434
23	0xb9bd2dda	-0.0003608305
24	0xba929efe	-0.0011186299
25	0x3b11a113	0.0022221252
26	0xbaef5800	-0.0018260479
27	0xb9a9b24a	-0.00032367028
28	0xbb42bb4b	-0.0029713686
29	0x3aa9f525	0.0012966736
30	0xbb3c2d9f	-0.0028713716
31	0xb87b2e65	-5.988627e-05
32	0xbb167c56	-0.0022962294
33	0x3a86381a	0.0010240108
34	0x3ac9aeeb	0.0015387213
35	0x3a014751	0.00049315864
36	0xbb719225	-0.003686079
37	0x399b7712	0.00029652618
38	0xbb3b76c6	-0.002860473
39	0x3a96999e	0.0011489873
40	0x3a76472e	0.0009394762
41	0xba9c2b84	-0.0011914824
42	0x3aaa4dff	0.0012993215
43	0x3aa1400f	0.0012302416
44	0xbb5cfa42	-0.0033718501
45	0x3aa34fc4	0.0012459685
46	0xbb3b844a	-0.0028612786
47	0x3817323a	3.6047983e-05
48	0xbb7916f8	-0.0038008075
49	0x3a710031	0.0009193449
50	0xbb363a93	-0.002780591
51	0x3a836054	0.0010023215
52	0xba639db8	-0.0008682865
53	0x38583bb7	5.1554027e-05
54	0x3aebe8ba	0.0017998435
55	0x39c7c5c2	0.0003810358
56	0x3b1bd6dc	0.002377919
57	0xbae40440	-0.0017396286
58	0x3b2a2801	0.0025963786
59	0x3ab09d48	0.0013474608
60	0xbb8b0e83	-0.0042436733
61	0x3b050045	0.002029435
62	0xbb3e1859	-0.0029006212
63	0xba479704	-0.00076137506
64	0xba81743c	-0.000987656
65	0xba98e5e0	-0.0011665188
66	0xbb5f615c	-0.003408513
67	0x3a1625d4	0.0005727683
68	0xbbb08609	-0.005387072
69	0xbb2b952f	-0.002618145
70	0xbb2423f3	-0.0025045841
71	0x3a1e023e	0.0006027556
72	0x3b0dcd89	0.00216374
73	0xbb4c6277	-0.003118662
74	0xbb6f9cdd	-0.0036562004
75	0x3a2332a2	0.00062255014
76	0x3b1ab305	0.002360524
77	0x3a2c6e71	0.00065777363
78	0xbb84c256	-0.004051487
79	0x3a8f3a26	0.0010927364
80	0x3b671012	0.0035257381
81	0xbad7ac9c	-0.001645464
82	0xba31f186	-0.0006788004
83	0xb9f9ddc1	-0.000476582
84	0x3b01d83f	0.001981273
85	0xba803a9f	-0.0009783095
86	0xbada1cb8	-0.0016640639
87	0xbb0147a3	-0.0019726537
88	0x3b105ac4	0.0022026757
89	0x3b30f5d1	0.0027001987
90	0xbb3bb85c	-0.0028643822
91	0xba8831f7	-0.0010390867
92	0xbba60da6	-0.005067545
93	0x3a634fab	0.0008671234
94	0xbb2a1009	-0.00259495
95	0x3a36abc1	0.00069683423
96	0xbb6ab86a	-0.0035815486
97	0x3a758f15	0.0009367329
98	0xbb5b73e3	-0.0033485822
99	0x3adde87e	0.001693025
100	0x3b15a98c	0.0022836654
101	0x3846b750	4.73776e-05
102	0xbb7c7bf8	-0.003852604
103	0xba8cbd22	-0.0010737518
104	0xbba63e71	-0.0050733616
105	0xb81fbe1e	-3.8085615e-05
106	0x3b2e623d	0.0026608848
107	0xbab84d1d	-0.0014061067
108	0x3ae81431	0.0017706213
109	0x3aa6f93f	0.0012739076
110	0xbb36324d	-0.0027800978
111	0xba4c7d6e	-0.0007800673
112	0xbb75f00e	-0.0037527117
113	0x3a2bad0c	0.00065489183
114	0x3a20e0a9	0.00061369926
115	0x3a74d740	0.0009339936
116	0xbaaf0ebb	-0.001335583
117	0x3a547b93	0.0008105572
118	0x398a2fa0	0.00026356895
119	0x3a74eaf7	0.0009342874
120	0xbb5a2f51	-0.0033292363
121	0xba292d05	-0.0006453547
122	0xbabcb16c	-0.0014396138
123	0x3a39081f	0.00070584
124	0xba89f3fd	-0.0010524985
125	0x39e55136	0.0004373879
126	0x3a9e073c	0.0012056599
127	0x39f44c1d	0.00046596015
128	0xbae7faf7	-0.0017698695
129	0xb968119d	-0.00022131806
130	0x39b3ecb2	0.00034317892
131	0x3a275d34	0.0006384433
132	0x3b1b43b3	0.0023691475
133	0x38bcfad6	9.0112604e-05
134	0x3b1705b8	0.002304418
135	0xba42a767	-0.00074254576
136	0xbb210ec8	-0.002457546
137	0xbafd85ac	-0.0019342205
138	0xb9ed58b3	-0.0004527025
139	0x3b08a9e2	0.0020853211
140	0x3b1b975b	0.0023741338
141	0xbb43eea7	-0.0029896887
142	0xbab8be58	-0.0014094813
143	0x3a8ead29	0.0010885346
144	0xbb207957	-0.0024486387
145	0xbb11fb41	-0.0022275003
146	0xbb83f308	-0.0040267743
147	0xb9c1f31a	-0.00036992953
148	0x3b5300cc	0.003219652
149	0xbb3a4949	-0.002842503
150	0x3b1f45bf	0.0024303047
151	0x3ae3c2e7	0.0017376811
152	0xbb8401f2	-0.004028552
153	0x3a6bf0fa	0.0009000447
154	0xbb8400ec	-0.00402843
155	0xba7ab323	-0.00095634366
156	0xbb863fbd	-0.0040969537
157	0xba13c54b	-0.0005637004
158	0xbb9890cf	-0.0046559344
159	0x3ac4f413	0.0015026353
160	0xbb77c006	-0.0037803664
161	0x3b19aef6	0.0023450232
162	0x3aa5a69c	0.0012638154
163	0x397699b4	0.00023517647
164	0xbb93df8b	-0.0045127324
165	0xbadcfeb1	-0.0016860572
166	0x3ae1897c	0.0017207111
167	0x3a482623	0.00076350773
168	0xbc070309	-0.00824047
169	0xbb7f63dc	-0.0038969433
170	0x3984ddda	0.00025342294
171	0xba423f0b	-0.0007409907
172	0x3991c2e2	0.00027801754
173	0x3a24ca52	0.00062862516
174	0xb9cebef1	-0.00039433644
175	0x39f1667a	0.00046043453
176	0x3a82b6ff	0.000997275
177	0x3a717fce	0.0009212465
178	0x3a43f4a8	0.0007475116
179	0xb757880d	-1.2846675e-05
180	0x3b01b996	0.0019794456
181	0x39cbc279	0.0003886407
182	0x3abc60d2	0.0014372116
183	0xb97b9e0c	-0.00023996102
184	0x39cbdb8d	0.00038882755
185	0xb8966db4	-7.172991e-05
186	0x398ddaae	0.00027056545
187	0x38c838e2	9.5473384e-05
188	0x3984b32b	0.00025310492
189	0x3a1a0733	0.00058757066
190	0xba33581b	-0.0006841437
191	0xbaadea95	-0.0013268763
192	0x3aafadd2	0.0013403243
193	0xb933a1bd	-0.00017131022
194	0x3aac4719	0.0013143747
195	0xba4bfb74	-0.0007781305
196	0x3a962bb5	0.0011457118
197	0x39d8650f	0.00041274025
198	0x3ab8101b	0.0014042886
199	0x3a19a573	0.00058611407
200	0x39ac1df9	0.00032828728
201	0x3a4c3aa9	0.00077907235
202	0x3a604100	0.00085546076
203	0x39ce035f	0.00039293893
204	0x3a534208	0.00080588507
205	0x39f7759f	0.00047199146
206	0x3a851a2c	0.0010154895
207	0x3a3c7b9b	0.00071900495
208	0x39da8356	0.00041678053
209	0x3908dbfa	0.00013051918
210	0x3ac80600	0.0015260577
211	0xb91acf87	-0.00014763894
212	0xb9a416fa	-0.00031297636
213	0x3a8b02f4	0.0010605738
214	0x39daee83	0.00041757905
215	0xb9e34197	-0.00043345682
216	0x394bf389	0.00019450313
217	0xba2a0806	-0.0006486181
218	0xb9859277	-0.00025476862
219	0xbac2566c	-0.0014826781
220	0x39dc1e85	0.0004198441
221	0xba0866e7	-0.0005203322
222	0x3a28a446	0.000643317
223	0xb96ece65	-0.00022774337
224	0xb946df23	-0.00018965876
225	0xb8ad9c4d	-8.278396e-05
226	0x3a8738a9	0.0010316569
227	0xb90665ee	-0.00012817208
228	0x3a106928	0.00055088336
229	0xb7c129ef	-2.302692e-05
230	0xba13752d	-0.00056250655
231	0xba355672	-0.00069174834
232	0xba9669de	-0.0011475643
233	0x3a5fc693	0.0008536365
234	0x389f1476	7.585522e-05
235	0xb8fbcdc3	-0.00012006939
236	0xbaa79d7a	-0.001278802
237	0xb90b32d9	-0.00013275015
238	0xb999e684	-0.00029354182
239	0x397379f9	0.00023219724
240	0xb96d6e1c	-0.000226431
241	0x3a097974	0.0005244233
242	0x398f43ed	0.00027325694
243	0xba6d9dee	-0.0009064366
244	0x38f2453f	0.00011552357
245	0x3a19dd67	0.00058694783
246	0xb9b31212	-0.00034155004
247	0xb9cd0413	-0.00039103683
248	0x38ea580d	0.0001117439
249	0xb9cd7bc8	-0.0003919287
250	0xb90ae741	-0.00013246854
251	0xb9d905e0	-0.00041393843
252	0xb8c7b5b8	-9.522907e-05
253	0x39497d76	0.00019215592
254	0xb8bd6450	-9.030907e-05
255	0xb8a23b7b	-7.735841e-05

exp_avg_sq f4 [64, 170]
0	0x38449706	4.6870693e-05
1	0x37c757ae	2.3763478e-05
2	0x389467e4	7.076541e-05
3	0x38431f5f	4.652084e-05
4	0x37ed779d	2.83083e-05
5	0x37a95f66	2.0190793e-05
6	0x385d71f3	5.279663e-05
7	0x3821a3d9	3.8537986e-05
8	0x382eedfe	4.170648e-05
9	0x37d93012	2.58908e-05
10	0x384aa1b5	4.8311154e-05
11	0x38149b77	3.5430738e-05
12	0x38601d5c	5.3433105e-05
13	0x37ed9769	2.8323107e-05
14	0x385c278e	5.2488926e-05
15	0x37f05a94	2.8652408e-05
16	0x386f4c74	5.7053243e-05
17	0x37a5cb28	1.9764135e-05
18	0x38330413	4.268072e-05
19	0x3757d692	1.2864957e-05
20	0x384ed401	4.931167e-05
21	0x3789a123	1.6406708e-05
22	0x37d9ec68	2.5978501e-05
23	0x37577764	1.2842796e-05
24	0x38652d2e	5.463993e-05
25	0x37c1622a	2.3053104e-05
26	0x3864b9ed	5.4532593e-05
27	0x37b564ad	2.1623762e-05
28	0x387fdf00	6.1004423e-05
29	0x37a1d459	1.9291578e-05
30	0x384b5746	4.848025e-05
31	0x37db3d93	2.6135507e-05
32	0x381320f2	3.5078214e-05
33	0x37363056	1.0859299e-05
34	0x3830d30f	4.2158234e-05
35	0x3796ab21	1.7961082e-05
36	0x3810da41	3.453554e-05
37	0x373b73a3	1.1172992e-05
38	0x37c565c9	2.3531627e-05
39	0x372fc650	1.0476986e-05
40	0x379d53f1	1.8754947e-05
41	0x36c5b1f4	5.891774e-06
42	0x37ad96e4	2.0693471e-05
43	0x369aa7c3	4.6090877e-06
44	0x37f9f926	2.9799132e-05
45	0x3717564a	9.020392e-06
46	0x3842fb4c	4.6487243e-05
47	0x3719cc2f	9.167051e-06
48	0x3831f0f1	4.2424483e-05
49	0x376ba87b	1.4046319e-05
50	0x38617268	5.375073e-05
51	0x37672af6	1.3778676e-05
52	0x3853eb38	5.0525385e-05
53	0x37c97cb6	2.401914e-05
54	0x38582f6e	5.1542585e-05
55	0x37030e47	7.811533e-06
56	0x38834ab2	6.26048e-05
57	0x380e99ef	3.39988e-05
58	0x388c113e	6.678932e-05
59	0x37a81cb9	2.0040536e-05
60	0x388c9c1b	6.704797e-05
61	0x37bf778f	2.2824648e-05
62	0x38728943	5.782513e-05
63	0x377a449e	1.4917137e-05
64	0x37d8da2d	2.5850803e-05
65	0x36c1753f	5.7654975e-06
66	0x38573b90	5.1315466e-05
67	0x37a1e3ab	1.9298712e-05
68	0x381bba8f	3.7128626e-05
69	0x378a2e57	1.647246e-05
70	0x386eb4a6	5.6911864e-05
71	0x37b83f80	2.1964079e-05
72	0x37dd5c5d	2.6388263e-05
73	0x37bcd5f5	2.2510978e-05
74	0x384bc9c6	4.8586888e-05
75	0x37d38018	2.5212808e-05
76	0x38343469	4.2964155e-05
77	0x37dfad78	2.666445e-05
78	0x387a6a45	5.9703616e-05
79	0x37e5d004	2.7395792e-05
80	0x3846dc68	4.7412148e-05
81	0x381b1382	3.6973048e-05
82	0x37643939	1.3603182e-05
83	0x3794c89f	1.7736396e-05
84	0x38273c65	3.987215e-05
85	0x37dd7908	2.6401613e-05
86	0x37a5c451	1.976095e-05
87	0x374e6af6	1.2303461e-05
88	0x38860bbc	6.3918036e-05
89	0x387ae188	5.9814687e-05
90	0x385b9b08	5.2358053e-05
91	0x37517559	1.2484693e-05
92	0x38d4098e	0.000101107275
93	0x38003268	3.0564523e-05
94	0x38603857	5.3458232e-05
95	0x36cc40ce	6.087218e-06
96	0x3852ddc6	5.0274444e-05
97	0x3749010a	1.19807755e-05
98	0x38947f98	7.080956e-05
99	0x37828bfa	1.556239e-05
100	0x3880162f	6.107648e-05
101	0x375f98b2	1.3327388e-05
102	0x383a1789	4.4367775e-05
103	0x37acd6ec	2.0604079e-05
104	0x3851ee5f	5.0051483e-05
105	0x37eb0746	2.801757e-05
106	0x37e2cfe6	2.703811e-05
107	0x37fcdc72	3.0143394e-05
108	0x378b63fd	1.6616652e-05
109	0x37c23e8d	2.315573e-05
110	0x37b702ff	2.1816695e-05
111	0x37d686fc	2.5573645e-05
112	0x370df1e7	8.460577e-06
113	0x3686f715	4.0222753e-06
114	0x37170b77	9.002971e-06
115	0x3759a567	1.2972719e-05
116	0x36eb28dd	7.008303e-06
117	0x3706ed5d	8.042288e-06
118	0x37a7fb87	2.0025078e-05
119	0x36eadf7f	6.999762e-06
120	0x377cb09a	1.5061489e-05
121	0x37adc5d1	2.0715323e-05
122	0x37c6a803	2.3681676e-05
123	0x36f1a1b8	7.2011862e-06
124	0x37c7cf80	2.3819273e-05
125	0x37143a35	8.83504e-06
126	0x38504845	4.965837e-05
127	0x37b1a66c	2.117754e-05
128	0x37a4a8a9	1.9628862e-05
129	0x3850f822	4.9822156e-05
130	0x382e8921	4.1612544e-05
131	0x37a36710	1.9479106e-05
132	0x38845756	6.310518e-05
133	0x382e4d7f	4.1557007e-05
134	0x38b5949b	8.6584325e-05
135	0x381dd355	3.7628535e-05
136	0x382e032f	4.1487798e-05
137	0x38ba31cd	8.878447e-05
138	0x38b1b3ab	8.4734835e-05
139	0x388cf775	6.721813e-05
140	0x383710ad	4.364613e-05
141	0x38c2cdb4	9.288956e-05
142	0x384e77ba	4.922573e-05
143	0x3859b039	5.190095e-05
144	0x3866b272	5.5002463e-05
145	0x38c9dd9e	9.625706e-05
146	0x3843e3a3	4.6703626e-05
147	0x386e2ec1	5.6787165e-05
148	0x389e5ff4	7.5519e-05
149	0x389ca63d	7.469624e-05
150	0x387f9574	6.0935927e-05
151	0x386c32ad	5.631398e-05
152	0x3859c6a8	5.1921845e-05
153	0x388463b6	6.312823e-05
154	0x38825390	6.214448e-05
155	0x3873c215	5.8116468e-05
156	0x3897883d	7.2256174e-05
157	0x3834cd3c	4.3106484e-05
158	0x386df0a4	5.6729317e-05
159	0x38097153	3.2768887e-05
160	0x3822c062	3.880298e-05
161	0x3807f047	3.2410284e-05
162	0x385b97d6	5.2355077e-05
163	0x37fe5f36	3.0323496e-05
164	0x389f442b	7.594408e-05
165	0x3837e5f5	4.3844764e-05
166	0x38289b1e	4.0198785e-05
167	0x380ea292	3.4006844e-05
168	0x38a84f51	8.025638e-05
169	0x384441c5	4.6791294e-05
170	0x378d6869	1.685713e-05
171	0x37b469cf	2.1506943e-05
172	0x37dfd4ee	2.6682825e-05
173	0x37f15f2c	2.8773757e-05
174	0x378b4dea	1.6606373e-05
175	0x37a1528d	1.9231136e-05
176	0x37c8fd4f	2.3959814e-05
177	0x37f3ec30	2.907784e-05
178	0x37b72642	2.1833115e-05
179	0x37e51307	2.7307788e-05
180	0x37e27a6e	2.699831e-05
181	0x37f13266	2.8752907e-05
182	0x37dd27c9	2.636378e-05
183	0x38133e60	3.5105622e-05
184	0x37c51107	2.3492159e-05
185	0x37f7b5d4	2.9529365e-05
186	0x37c28e7d	2.3192953e-05
187	0x380e2830	3.3892866e-05
188	0x37bc529b	2.2449813e-05
189	0x37f7f91a	2.9560691e-05
190	0x37c8ab5c	2.3921653e-05
191	0x380be24b	3.3350934e-05
192	0x37988443	1.8181401e-05
193	0x37c432a6	2.3388606e-05
194	0x37bdbc5f	2.2618273e-05
195	0x37eca2c9	2.8209195e-05
196	0x379291f0	1.7472514e-05
197	0x37d37d10	2.5211397e-05
198	0x37baed70	2.2283493e-05
199	0x37e2a288	2.7016984e-05
200	0x37aa54bd	2.0305039e-05
201	0x37e66770	2.7466303e-05
202	0x37f013e5	2.8619494e-05
203	0x37de2960	2.6483729e-05
204	0x37e69c44	2.7490903e-05
205	0x37f147a7	2.8762805e-05
206	0x37f580bc	2.9266223e-05
207	0x37e648ce	2.7452039e-05
208	0x37edb25f	2.8335662e-05
209	0x37e7428e	2.7568338e-05
210	0x37b51391	2.1585993e-05
211	0x37b80e5a	2.1941192e-05
212	0x377b1479	1.49655325e-05
213	0x3788ea39	1.6321532e-05
214	0x37a4ae9d	1.9631634e-05
215	0x37b8bbb9	2.2021924e-05
216	0x37cd13ac	2.4447065e-05
217	0x37c37d2a	2.3304096e-05
218	0x37d47ac3	2.5329535e-05
219	0x37ed32c4	2.8276241e-05
220	0x37f06452	2.8656945e-05
221	0x37d737c8	2.5655972e-05
222	0x37bcc8d4	2.2504864e-05
223	0x37bcbb78	2.2498643e-05
224	0x37d4fa7e	2.5389014e-05
225	0x37a35cd0	1.9474333e-05
226	0x379222b4	1.7420716e-05
227	0x378ce9f4	1.6798243e-05
228	0x37c5013b	2.3484803e-05
229	0x37c6acbf	2.368388e-05
230	0x37b83e6d	2.1963579e-05
231	0x37a323aa	1.9447722e-05
232	0x379f8f03	1.9020872e-05
233	0x37c83c36	2.3869896e-05
234	0x3781071b	1.5381307e-05
235	0x3777f887	1.4780212e-05
236	0x37e3a8db	2.7139138e-05
237	0x37dd5342	2.6384023e-05
238	0x37e2f885	2.7057025e-05
239	0x37daab7d	2.606748e-05
240	0x37d6ee29	2.562169e-05
241	0x37e7f34e	2.7650643e-05
242	0x37b4ef45	2.156909e-05
243	0x37c8d6fe	2.3941971e-05
244	0x37bc07f9	2.2415059e-05
245	0x37dfe258	2.6689071e-05
246	0x370fe41e	8.576577e-06
247	0x37701f6a	1.4312429e-05
248	0x37af4a59	2.0896246e-05
249	0x37b40aff	2.1462793e-05
250	0x3740caf9	1.149135e-05
251	0x378e9f21	1.700182e-05
252	0x362b709e	2.5546537e-06
253	0x36c3be0b	5.833577e-06
254	0x368bb0e1	4.163114e-06
255	0x371f95a0	9.511976e-06

exp_avg f4 [64]
0	0x38a29921	7.7532844e-05
1	0x38d96399	0.00010365918
2	0x3936dbf0	0.00017438806
3	0x398acd85	0.00026474535
4	0xb8c39315	-9.325721e-05
5	0x39821f39	0.00024818795
6	0x3864cc7f	5.4549888e-05
7	0x3a1654d7	0.0005734688
8	0xb9cde119	-0.00039268358
9	0x39796181	0.00023782814
10	0xba2cac1a	-0.00065869244
11	0x3a2eb4e9	0.0006664531
12	0x39b97e9b	0.00035380278
13	0x3a3007b9	0.0006715018
14	0x39c47d86	0.00037477555
15	0xba2dcb50	-0.0006629722
16	0xb9ea61c8	-0.0004470481
17	0x39375bc6	0.00017486428
18	0x36f9ea13	7.448028e-06
19	0xb891bb49	-6.9490234e-05
20	0xba530def	-0.00080510875
21	0xbb06bf83	-0.0020560927
22	0xba09d8ee	-0.00052584603
23	0xb62016cc	-2.3855127e-06
24	0x3862f3c4	5.4109623e-05
25	0x38a987c1	8.083834e-05
26	0xb98a92db	-0.00026430827
27	0xb7c4801e	-2.342468e-05
28	0xba1e048e	-0.00060279004
29	0xb99772dc	-0.0002888654
30	0xba3068a9	-0.0006729463
31	0xba1afbfc	-0.00059121824
32	0x398dad21	0.00027022607
33	0xba0cd941	-0.00053729495
34	0x3a0b1bf6	0.00053065957
35	0xb9f23ec7	-0.0004620461
36	0x39ace824	0.00032979355
37	0xb9876470	-0.00025824038
38	0xba61f310	-0.0008619288
39	0xb9ce5aa9	-0.0003935893
40	0xb924a9d7	-0.00015703529
41	0x3a433db5	0.0007447855
42	0x3948fc38	0.00019167445
43	0xb981a076	-0.0002472435
44	0xb8f08c0b	-0.00011470177
45	0x38281d70	4.0081737e-05
46	0x39b636ab	0.00034754476
47	0xb819d6fb	-3.667826e-05
48	0x3a5ad439	0.00083476637
49	0x3ac29894	0.0014846497
50	0x39d243f0	0.0004010494
51	0xb8760b0b	-5.8661255e-05
52	0xb9046e85	-0.00012629673
53	0xba91f65c	-0.0011136043
54	0xb863856a	-5.424527e-05
55	0xba060953	-0.0005113084
56	0x3a3bcc62	0.00071639393
57	0x3a87d9a3	0.0010364543
58	0x396011ea	0.00021368978
59	0xb9c4e872	-0.00037557218
60	0xb9540b45	-0.00020222094
61	0x3973c569	0.00023247827
62	0xba1d37f7	-0.0005997414
63	0x3910dde4	0.00013815571

exp_avg_sq f4 [64]
0	0x37260d6f	9.897499e-06
1	0x3634b7c6	2.692906e-06
2	0x376096e3	1.33865715e-05
3	0x36756b86	3.6570432e-06
4	0x3749ada5	1.2020963e-05
5	0x374c5c41	1.2180827e-05
6	0x370f4dfd	8.541622e-06
7	0x37a216af	1.9322468e-05
8	0x36a927f3	5.041243e-06
9	0x36f5078a	7.3024466e-06
10	0x36b0f7d2	5.274059e-06
11	0x37493c8c	1.1994631e-05
12	0x3737f504	1.0964697e-05
13	0x36f043be	7.1604436e-06
14	0x36c6e472	5.9274544e-06
15	0x36334145	2.671107e-06
16	0x36493969	2.998475e-06
17	0x3702e57f	7.8020375e-06
18	0x36f54c69	7.3104643e-06
19	0x368aaee5	4.133081e-06
20	0x36aea61d	5.204942e-06
21	0x398de9f9	0.0002706794
22	0x36940c95	4.4122085e-06
23	0x370b32ed	8.296903e-06
24	0x36929da9	4.369493e-06
25	0x365e61e4	3.3137558e-06
26	0x371e00f6	9.417758e-06
27	0x378204a1	1.5499363e-05
28	0x36a31477	4.860161e-06
29	0x36df6c65	6.6585367e-06
30	0x36f4b0a5	7.292331e-06
31	0x36cbeed2	6.077674e-06
32	0x36be400e	5.669898e-06
33	0x36cdef98	6.1373685e-06
34	0x36a67f84	4.9620303e-06
35	0x36459287	2.9440578e-06
36	0x3794a887	1.7721452e-05
37	0x373275c0	1.0637043e-05
38	0x36da3738	6.5033346e-06
39	0x382064c1	3.8240807e-05
40	0x3907321d	0.00012893272
41	0x37085a7b	8.127298e-06
42	0x364d7af5	3.061895e-06
43	0x367d4d6c	3.7745003e-06
44	0x365bfcc3	3.278067e-06
45	0x3703e9a2	7.862605e-06
46	0x372f1c7a	1.0437443e-05
47	0x36a35f16	4.868848e-06
48	0x379bcc98	1.8572711e-05
49	0x36cdd3d5	6.1341366e-06
50	0x362a883e	2.5411277e-06
51	0x364b002c	3.0249457e-06
52	0x364444c9	2.9246314e-06
53	0x369b90f2	4.636234e-06
54	0x37c2e527	2.323331e-05
55	0x3763c8c4	1.3576999e-05
56	0x37b30dbd	2.134486e-05
57	0x37152c73	8.891441e-06
58	0x36627081	3.374211e-06
59	0x377f9224	1.523321e-05
60	0x362eddfe	2.6057237e-06
61	0x36a23311	4.833921e-06
62	0x368f180e	4.2645324e-06
63	0x3767f542	1.38257765e-05
