data_demos/b1_models/z_r12r13_21_2021.06.28_held_in_calib.nwb_FFNN_20240604_093216.pt (torch, 289753 bytes, 18 tensors)

layers.0.weight f4 [64, 170]
0.16856708 0.09627834 0.08879309 0.08279133 0.12300699 0.049725007 0.14107168 0.11457536
0.0051201954 -0.112941764 0.09357782 0.046969432 -0.19306207 -0.15392745 -0.060861573 0.082319185
-0.016052656 0.052807216 -0.12261779 -0.23467475 -0.3386296 -0.5382778 -0.34923774 -0.37598428
-0.37276566 -0.42346987 0.11223201 -0.29051158 -0.07539429 -0.032007206 0.13704424 -0.016907109
0.19537804 0.29600954 0.13185523 0.29821947 0.0926582 0.2512614 0.40359226 0.48224503
-0.1312855 -0.13919333 0.35131323 -0.11659503 -0.2530582 -0.32323334 -0.29399318 -0.605174
-0.15843304 0.014940457 -0.5705015 -0.65107065 -0.14231472 0.18087058 -0.4570635 -0.07760304
-0.08797271 0.20089573 0.05060991 0.09220269 0.27493948 0.25144994 -0.23854658 -0.054823775
0.050873734 0.023259709 0.24519937 0.10949614 0.0534521 -0.1148193 0.15892641 -0.013370835
-0.07391009 0.1554118 0.33368886 0.14257215 -0.06370924 -0.11118048 -0.22245005 -0.23689523
0.09824294 0.106087975 -0.2032954 -0.4560181 -0.09741345 -0.25755292 -0.36389524 -0.3980881
-0.55286866 -0.23653707 -0.3496794 -0.34686413 -0.5273194 -0.33551833 -0.3262724 -0.4092928
-0.40878758 -0.43309614 -0.520492 -0.35622075 -0.22264057 -0.5174024 -0.051482566 0.052899845
0.14391404 -0.19533302 -0.090175934 -0.12688716 0.14191273 -0.18283474 0.095063254 -0.030012462
0.24660721 0.10275967 0.07817281 0.03877464 0.37372866 0.21686488 0.224232 0.057241198
0.061349113 -0.048240226 -0.0058308705 -0.22751062 0.13271452 0.10316468 -0.31147137 -0.38407907
-0.028082982 -0.1615419 0.2552561 0.29789525 0.040901057 0.20994724 0.066698804 0.29535067
-0.07071479 -0.17943296 0.22294763 0.32181546 -0.00276179 0.1009547 0.08991182 0.15560646
-0.021062778 0.13667233 -0.10267534 0.2789222 -0.0716774 0.25308383 -0.10088869 0.18744686
-0.12426707 0.050185386 -0.037657555 0.16607451 -0.12888469 0.1912697 -0.293337 -0.07951292
0.13255247 0.3585146 0.04883417 0.20145024 0.101434916 0.1550112 -0.06387325 0.04507204
-0.19660197 0.05948769 -0.20079154 0.14131501 0.057187058 0.24427503 0.19819243 0.17912665
0.24918969 0.13688289 0.18858984 0.13587151 -0.0097451415 0.14674668 0.00490576 -0.13913962
-0.014756068 -0.14596634 0.1738831 0.05317497 -0.06712405 -0.14603661 0.01018955 -0.13731457
0.014962019 -0.025972977 -0.14571014 -0.10097189 0.14889483 0.0554897 0.002023535 -0.1821318
0.24086191 -0.13573448 -0.339456 -0.47203052 0.14889267 -0.07079076 0.14335139 0.25766647
0.4513228 0.22226444 -0.07724477 -0.05707779 0.118661374 0.33074865 0.21077429 0.2616889
0.057688612 0.24288996 -0.14708635 0.094150916 0.034497175 0.0164332 -0.28029442 0.0014495482
-0.19324338 0.013156865 -0.369132 0.07882934 -0.29597872 -0.39685443 -0.5592766 -0.20214666
-0.7012254 -0.9001645 -0.28346515 -0.16411635 -0.7438853 -0.50509053 -0.27285752 -0.18826388
-0.030435966 -0.039925087 -0.00039136858 -0.046403844 0.18227348 0.09462732 0.022088213 -0.0019479215
0.17023872 0.012269903 0.16393188 0.2268109 0.13985236 0.1218107 0.19647674 0.3123426
00000000: d99c 2c3e 942d c53d 27d9 b53d 808e a93d
00000010: 17eb fb3d 73ac 4b3d 1875 103e 7da6 ea3d
00000020: 50c7 a73b 034e e7bd baa5 bf3d 0563 403d
00000030: 10b2 45be 289f 1dbe fc49 79bd f696 a83d
00000040: dc80 83bc 614c 583d 091f fbbd 944e 70be
00000050: dc60 adbe 93cc 09bf 4acf b2be 0381 c0be
00000060: 24db bebe 0bd1 d8be e5d9 e53d efbd 94be
00000070: 5268 9abd fd19 03bd 5355 0c3e c780 8abc
00000080: 2e11 483e 908e 973e 0f05 073e 39b0 983e
00000090: 95c3 bd3d 56a5 803e a5a3 ce3e d2e8 f63e
000000a0: b56f 06be b288 0ebe 54df b33e 60c9 eebd
000000b0: d890 81be d77e a5be 4686 96be afec 1abf
000000c0: 453c 22be d2c8 743c 630c 12bf 91ac 26bf
000000d0: f3ba 11be 2336 393e 3a04 eabe 58ee 9ebd
000000e0: 092b b4bd 9cb7 4d3e 564c 4f3d c4d4 bc3d
000000f0: dec4 8c3e 0cbe 803e 8e45 74be e58e 60bd
00000100: fa60 503d 258b be3c 8b15 7b3e 833f e03d
00000110: 97f0 5a3d 6226 ebbd 9bbd 223e 5911 5bbc
00000120: 2c5e 97bd 4524 1f3e 44d9 aa3e 6ffe 113e
00000130: fd79 82bd 97b2 e3bd f2c9 63be aa94 72be
00000140: 9833 c93d a744 d93d ab2c 50be 347b e9be
00000150: b480 c7bd fadd 83be 7a50 babe 34d2 cbbe
00000160: cd88 0dbf c636 72be 2e09 b3be 2d98 b1be
00000170: 67fe 06bf 0fc9 abbe 2d0d a7be d38e d1be
00000180: 9b4c d1be c7be ddbe f73e 05bf 9162 b6be
00000190: e4fb 63be 7c74 04bf 62df 52bd 82ad 583d
000001a0: 345e 133e 6105 48be 29ae b8bd b5ee 01be
000001b0: 9251 113e 0839 3bbe 86b0 c23d b2dc f5bc
000001c0: 9a86 7c3e a973 d23d 1119 a03d 28d2 1e3d
000001d0: 5d59 bf3e d411 5e3e 139d 653e bf75 6a3d
000001e0: 3549 7b3d 8b97 45bd e310 bfbb 8bf8 68be
000001f0: 51e6 073e 0148 d33d 2d79 9fbe 03a6 c4be
00000200: 480e e6bc 3d6b 25be edb0 823e ba85 983e
00000210: de87 273d 69fc 563e 6299 883d 3438 973e
00000220: ead2 90bd 46bd 37be 624c 643e ffc4 a43e
00000230: 26ff 34bb 56c1 ce3d b023 b83d 4d57 1f3e
00000240: d98b acbc d5f3 0b3e 7347 d2bd e4ce 8e3e
00000250: 9acb 92bd 3494 813e bb9e cebd 12f2 3f3e
00000260: bc7f febd 318f 4d3d cf3e 1abd 700f 2a3e
00000270: 59fa 03be 34dc 433e 4430 96be abd7 a2bd
00000280: d6bb 073e 3a8f b73e 5706 483d f948 4e3e
00000290: 1cbd cf3d 42bb 1e3e facf 82bd 769d 383d
000002a0: 0752 49be 5da9 733d 4c9c 4dbe e2b4 103e
000002b0: fa3c 6a3d 3c23 7a3e f5f2 4a3e fa6c 373e
000002c0: 952b 7f3e 072b 0c3e b21d 413e e721 0b3e
000002d0: 16aa 1fbc c344 163e 7fc0 a03b 9e7a 0ebe
000002e0: 6fc3 71bc 3378 15be 690e 323e ffcd 593d
000002f0: 5578 89bd 9f8a 15be 12f2 263c 319c 0cbe
00000300: 4223 753c 48c5 d4bc 0a35 15be 5aca cebd
00000310: e377 183e 2b49 633d 499d 043b c280 3abe
00000320: 81a4 763e fbfd 0abe 2dcd adbe fcad f1be
00000330: 5277 183e bffa 90bd b5ca 123e dcec 833e
00000340: c813 e73e 4a99 633e 8232 9ebd 67ca 69bd
00000350: bc04 f33d e357 a93e 37d5 573e 16fc 853e
00000360: e54a 6c3d 25b8 783e ce9d 16be 32d2 c03d
00000370: e94c 0d3d eb9e 863c c082 8fbe c4fe bd3a
00000380: 98e1 45be e48f 573c dffe bcbe 4771 a13d
00000390: 868a 97be 8130 cbbe c02c 0fbf 89ff 4ebe
000003a0: 8283 33bf 2e71 66bf 5822 91be 1e0e 28be
000003b0: 446f 3ebf 9d4d 01bf fbb3 8bbe 3fc8 40be
000003c0: d954 f9bc 7d88 23bd 9a30 cdb9 f511 3ebd
000003d0: e6a5 3a3e f8cb c13d 57f2 b43c 6651 ffba
000003e0: 0f53 2e3e b407 493c c2dd 273e 1e41 683e
000003f0: 7535 0f3e e377 f93d 3331 493e 5feb 9f3e

layers.0.bias f4 [64]
0.19931802 1.608572 -0.114351675 -0.2167224 -0.29404476 0.93029 0.91644573 0.9846813
-0.82787263 0.60219824 -0.89711916 0.5980499 -1.6142406 0.029427601 0.27079302 -0.7961661
-0.99794465 0.49849752 -2.1147585 -0.90808314 0.6352191 1.2165042 0.25276625 -0.45210448
0.37856957 -1.894784 0.43698314 0.65071553 -1.9588419 0.46727577 0.57879055 -1.4638007
1.1611576 0.89311785 1.0704772 -0.1204773 1.6042538 0.553966 0.7719973 0.09066736
-0.37786976 0.7195952 -2.7045977 0.8160005 -0.07838571 1.1353812 0.32885572 -0.21772125
-0.5560073 -0.76870406 -0.5714353 1.1640353 0.043359216 -1.1787032 0.03708871 0.5218763
0.6141346 0.8773879 -0.13842444 1.1626718 0.4946319 0.5366666 0.33842576 -0.034337025
00000000: 061a 4c3e b0e5 cd3f 3631 eabd 7aec 5dbe
00000010: 098d 96be 7c27 6e3f 309c 6a3f 1314 7c3f
00000020: 76ef 53bf aa29 1a3f 9aa9 65bf cc19 193f
00000030: 709f cebf 2712 f13c 62a5 8a3e 8bd1 4bbf
00000040: 4d79 7fbf 113b ff3e 3458 07c0 2378 68bf
00000050: b89d 223f 69b6 9b3f 946a 813e 3d7a e7be
00000060: dfd3 c13e 4888 f2bf 41bc df3e 4b95 263f
00000070: 55bb fabf c53e ef3e 9e2b 143f d25d bbbf
00000080: d0a0 943f 5fa3 643f 6605 893f cdbc f6bd
00000090: 3058 cd3f b7d0 0d3f 9da1 453f cfaf b93d
000000a0: 2578 c1be 6437 383f 2118 2dc0 69e5 503f
000000b0: b088 a0bd 2c54 913f c75f a83e 52f2 5ebe
000000c0: 7f56 0ebf cac9 44bf 9549 12bf 1cff 943f
000000d0: 6f99 313d bfdf 96bf 55ea 173d af99 053f
000000e0: ed37 1d3f 7e9c 603f 23bf 0dbe 6ed2 943f
000000f0: 6440 fd3e fb62 093f 2446 ad3e fba4 0cbd

layers.1.weight f4 [64, 64]
-0.057451684 0.13736925 -0.12797904 0.053779315 -0.0056054383 0.12003848 -0.115821384 0.037219442
-0.030704519 0.00065385917 0.028625581 -0.08651297 0.022774845 -0.02458387 -0.06600897 -0.16451713
-0.019527802 -0.11089795 -0.04666955 0.029537724 -0.120363876 0.05928167 -0.18037152 -0.04315618
-0.03209852 -0.20284422 0.08310342 -0.12764163 -0.17094636 -0.09323609 -0.00077103893 -0.007870637
-0.20928752 0.122861795 -0.09211311 -0.014353149 -0.02692882 -0.049428638 0.028709706 -0.09405809
-0.14346038 -0.02303655 -0.22992435 -0.040645327 0.035973657 -0.14725003 -0.013865796 -0.095962316
0.008023382 -0.08645578 0.0055231494 -0.04460166 0.09236264 0.044980254 -0.043078586 -0.095183216
0.026830018 -0.005561867 -0.091011204 0.09764103 -0.1071499 -0.12455475 0.036584996 0.0065589426
0.093477055 -0.08655533 0.14370464 -0.09071384 -0.073812775 0.02819172 0.03729595 -0.002840241
0.06477151 -0.037952222 0.23382048 0.020255795 0.17820084 -0.013424767 0.059766594 -0.01611057
0.18092261 0.124373965 -0.19790465 -0.11945393 0.029627228 -0.0038203916 0.027937569 -0.0017846463
-0.056379616 -0.015486727 0.014602121 -0.07430945 0.015084026 -0.09045865 -0.018178431 0.07343803
0.03725596 -0.0942984 0.16881959 -0.029434152 -0.08126682 0.16287982 -0.11500252 0.029290602
-0.0022280733 0.018927364 0.014359585 0.098987296 0.09186371 0.16734925 0.1024333 -0.12062316
0.06267691 -0.05273062 -0.054927077 0.016771788 0.026967015 -0.050887782 0.03590133 0.0054916386
0.08769839 -0.021171555 0.015823936 -0.08728287 0.07259553 -0.09992249 -0.023832263 -0.0255202
0.010868422 -0.10947271 0.11084441 0.22127536 0.33369693 0.005928612 -0.082084365 -0.08005959
0.11541658 -0.10045324 0.26039642 -0.08614928 0.14585513 0.23430459 0.1678749 -0.020809151
0.11768209 0.0041009593 0.037622556 0.14883247 -0.16327405 0.03958018 0.037075285 -0.026964039
0.011873972 0.032376084 0.04797173 0.04086443 0.0142194815 -0.14288583 -0.019195296 -0.018834436
-0.27196348 -0.08184951 -0.27776065 0.012321639 -0.028421473 -0.06635691 -0.061094806 -0.048096698
0.19215614 0.035412177 0.021759909 -0.08853934 0.02747121 -0.30383706 -0.19732665 0.22779393
0.039768506 0.026246812 -0.075276345 0.05205513 0.010965813 -0.04261743 -0.107739404 -0.014262684
0.1970394 -0.064812176 -0.1923493 -0.080829054 -0.19557592 0.16659984 -0.02793015 -0.041437965
-0.0881881 -0.045341786 0.090057865 -0.12668037 -0.09791621 -0.011881884 0.029168505 0.037690382
0.064523466 -0.10383362 -0.06337398 0.11050693 -0.12547036 -0.17563178 -0.0018904046 0.07674154
0.09267561 -0.12003179 0.17853239 -0.06492936 0.08854217 -0.11267544 0.038646284 0.14219177
0.06481435 0.027938357 0.14440794 -0.06036861 0.038038246 0.07369218 -0.04636153 0.09959353
0.06679102 -0.02701637 -0.07463064 0.03329356 -0.044407163 0.021274159 -0.098829806 -0.06081566
0.010546544 -0.057553846 0.06121167 0.04036095 -0.09398824 -0.009592145 -0.04414567 0.08521569
0.00999584 0.13274837 0.025007432 -0.08060409 -0.031822406 0.005438186 0.1422727 0.005025271
0.0811022 -0.061506793 0.17200325 -0.03828851 -0.059983674 0.03188194 0.14446053 0.014429373
00000000: 7552 6bbd 86aa 0c3e f00c 03be b347 5c3d
00000010: d3ad b7bb bcd6 f53d c333 edbd 6a73 183d
00000020: 0b88 fbbc bf67 2b3a 3280 ea3c b62d b1bd
00000030: 5092 ba3c 1d64 c9bc b62f 87bd 2e77 28be
00000040: c5f8 9fbc 771e e3bd 9228 3fbd 19f9 f13c
00000050: 5681 f6bd 56d1 723d 50b3 38be 89c4 30bd
00000060: bd79 03bd 65b6 4fbe 2032 aa3d 7db4 02be
00000070: 900c 2fbe 90f2 bebd 8c1f 4aba d8f3 00bc
00000080: 784f 56be f79e fb3d cca5 bcbd 7829 6bbc
00000090: d499 dcbc af75 4abd 9e30 eb3c 87a1 c0bd
000000a0: 47e7 12be 26b7 bcbc 4a71 6bbe b77b 26bd
000000b0: 1d59 133d b6c8 16be 5d2d 63bc e487 c4bd
000000c0: 8174 033c ba0f b1bd 89fb b43b 3bb0 36bd
000000d0: a028 bd3d 373d 383d 2c73 30bd 6bef c2bd
000000e0: a0ca db3c 5240 b6bb 1564 babd 05f8 c73d
000000f0: 6871 dbbd 9016 ffbd 26da 153d 66ec d63b
00000100: e670 bf3d ec43 b1bd 4f27 133e 2ec8 b9bd
00000110: 272b 97bd 52f2 e63c a3c3 183d 5623 3abb
00000120: eda6 843d ca73 1bbd a36e 6f3e 7bef a53c
00000130: 487a 363e 8ef3 5bbc d1cd 743d 50fa 83bc
00000140: c743 393e c7b7 fe3d 84a7 4abe 43a4 f4bd
00000150: cdb4 f23c 895f 7abb 54dd e43c cbea e9ba
00000160: 50ee 66bd 0abc 7dbc bc3d 6f3c 8e2f 98bd
00000170: fe22 773c 6242 b9bd efea 94bc ae66 963d
00000180: b599 183d 851f c1bd 0bdf 2c3e e41f f1bc
00000190: 386f a6bd f8c9 263e 7186 ebbd d8f2 ef3c
000001a0: de04 12bb 8f0d 9b3c 7744 6b3c dab9 ca3d
000001b0: 0a23 bc3d 9a5d 2b3e 8dc8 d13d 4609 f7bd
000001c0: c05c 803d 10fc 57bd 37fb 60bd fd64 893c
000001d0: eee9 dc3c b56f 50bd 460d 133d 34f3 b33b
000001e0: 379b b33d f86f adbc 33a1 813c 5dc1 b2bd
000001f0: f7ac 943d 2aa4 ccbd e13b c3bc bd0f d1bc
00000200: 7711 323c 3a33 e0bd 6502 e33d 0296 623e
00000210: 53da aa3e cd44 c23b d91b a8bd 48f6 a3bd
00000220: 875f ec3d 6eba cdbd ae52 853e 096f b0bd
00000230: 0c5b 153e 8bed 6f3e 66e7 2b3e f477 aabc
00000240: 4f03 f13d 5761 863b 1c1a 1a3d 8a67 183e
00000250: 5031 27be d41e 223d 41dc 173d b0e3 dcbc
00000260: 0c8b 423c c99c 043d 017e 443d 7661 273d
00000270: d4f8 683c aa50 12be 743f 9dbc ad4a 9abc
00000280: cc3e 8bbe b7a0 a7bd a536 8ebe b3e0 493c
00000290: 26d4 e8bc 22e6 87bd 8c3e 7abd 0b01 45bd
000002a0: 94c4 443e 5c0c 113d d641 b23c 1d54 b5bd
000002b0: 4e0b e13c 8890 9bbe ff0f 4abe d042 693e
000002c0: 4de4 223d 8e03 d73c 7c2a 9abd c337 553d
000002d0: f4a9 333c 9d8f 2ebd 7aa6 dcbd 08ae 69bc
000002e0: b2c4 493e 3fbc 84bd 37f7 44be b489 a5bd
000002f0: 0e45 48be 2699 2a3e c5cd e4bc dbba 29bd
00000300: f69b b4bd 4fb8 39bd 4270 b83d 80b8 01be
00000310: 4b88 c8bd 3cac 42bc caf2 ee3c 3b61 1a3d
00000320: e124 843d b9a6 d4bd 38ca 81bd 7551 e23d
00000330: 4d7b 00be d1d8 33be 74c7 f7ba ab2a 9d3d
00000340: b6cc bd3d 3ad3 f5bd 32d1 363e aff9 84bd
00000350: 9955 b53d 62c2 e6bd 914b 1e3d b89a 113e
00000360: 63bd 843d fbde e43c addf 133e 1345 77bd
00000370: fecd 1b3d edeb 963d 96e5 3dbd b1f7 cb3d
00000380: bbc9 883d 6f51 ddbc f3d7 98bd d45e 083d
00000390: 49e4 35bd 2547 ae3c 4867 cabd d719 79bd
000003a0: 69cb 2c3c 95bd 6bbd 17b9 7a3d 8651 253d
000003b0: e87c c0bd 5f28 1dbc 17d2 34bd 9085 ae3d
000003c0: 97c5 233c 30ef 073e 63dc cc3c c213 a5bd
000003d0: 3658 02bd d032 b23b efaf 113e 07ab a43b
000003e0: e918 a63d 8cee 7bbd 9f21 303e 6ad4 1cbd
000003f0: 71b1 75bd a396 023d 76ed 133e 2d69 6c3c

layers.1.bias f4 [64]
-0.5178204 0.4572268 -0.6821914 -0.15022786 -0.87499565 -0.79456073 -2.041351 -0.38598326
-0.30493984 -1.1107686 -0.05318351 -2.4106705 -1.8280574 -0.6712343 0.08699216 0.17430766
-0.37089908 0.3148766 0.31324652 -0.08450995 -0.0042066174 -0.41434306 -0.13663821 -0.546444
-1.288679 -0.054245386 -0.09489059 0.30443585 -0.15486114 -0.41753358 0.32181102 -0.45398885
-0.19416769 0.18346195 -0.25090268 -1.2265308 0.3437769 0.118605115 0.09740192 -1.6224792
-1.8052582 0.050386976 0.07785054 -1.7053128 -1.7056912 -0.0922921 -2.2970827 -1.2344096
-2.0093277 -2.5652506 0.16463223 0.2921926 -0.013319912 0.14931749 -0.41893753 -1.189621
-1.2610242 -0.27036086 0.7750712 -1.2858669 -0.50987285 -2.00279 -2.2508388 0.36673206
00000000: e18f 04bf a219 ea3e 18a4 2ebf 55d5 19be
00000010: b7ff 5fbf 5568 4bbf 7fa5 02c0 999f c5be
00000020: 1321 9cbe aa2d 8ebf f4d6 59bd 6d48 1ac0
00000030: c9fd e9bf 03d6 2bbf f228 b23d b57d 323e
00000040: 7ce6 bdbe 8137 a13e d961 a03e 8d13 adbd
00000050: aad7 89bb c624 d4be e3ea 0bbe c1e3 0bbf
00000060: 6ff3 a4bf 6930 5ebd ff55 c2bd 04df 9b3e
00000070: eb93 1ebe f6c6 d5be 6ac4 a43e 3a71 e8be
00000080: e5d3 46be 73dd 3b3e 5176 80be f6fe 9cbf
00000090: 8703 b03e 3de7 f23d a87a c73d 66ad cfbf
000000a0: b312 e7bf 9362 4e3d 1b70 9f3d b147 dabf
000000b0: 1754 dabf a403 bdbd 6703 13c0 2201 9ebf
000000c0: d398 00c0 112d 24c0 5a95 283e 459a 953e
000000d0: c33b 5abc afe6 183e fb7e d6be 8045 98bf
000000e0: 3e69 a1bf bd6c 8abe 116b 463f 4997 a4bf
000000f0: 0787 02bf b62d 00c0 be0d 10c0 4ec4 bb3e

layers.2.weight f4 [128, 64]
0.030869836 -0.043211907 0.0067161834 -0.019921744 0.029552244 0.014844069 0.029093334 0.05351495
0.002230913 -0.023221718 0.026867256 -0.005914235 -0.028920932 0.024127707 0.0026626699 0.024621507
-0.0066214195 0.010235418 0.0446821 0.0213851 0.022989633 0.05224711 0.015587663 0.006639666
-0.0079479795 0.017874056 0.00603477 0.017639749 -0.0642061 -6.196229e-05 -0.044106938 -0.037318945
0.03804107 0.00823943 -0.029473836 0.0070841997 0.003737728 0.018003691 0.015746113 0.014543657
-0.006531296 0.020988693 0.013008155 -0.023648227 -0.012708705 0.020890985 0.011971399 -0.00928941
0.0053361007 -0.004573403 0.030423628 0.033864763 0.01794198 -0.0061137215 0.00032282548 0.0108028585
-0.00083756197 -0.021492492 0.056834664 -0.06901605 -0.0028532625 0.0321805 0.030794764 -0.00503854
0.03338268 -0.091346934 -0.029485611 0.03438952 -0.011588649 0.008161049 -0.030912217 0.077685006
-0.022386333 -0.025104132 0.016469812 -0.0047026034 0.015374008 0.03177505 -0.027132725 -0.0020730335
-0.042640023 0.024073068 -0.035771124 0.0018263 0.0046424796 0.09080605 -0.024120338 0.03207569
-0.011058929 -0.0028435474 0.038382627 0.010716424 -0.05668599 -0.0035480887 -0.04160716 -0.07856249
-0.0017854625 -0.012524645 -0.07492521 -0.003398001 0.01703043 0.014313947 0.0074499194 -0.021689733
-0.046426557 0.011827747 0.010477662 0.002446561 0.0005627356 0.022157935 -0.019654548 -0.040497214
-0.012410613 -0.00046819387 0.0009314578 -0.012785253 0.0010848151 -0.041255098 -0.031045208 -0.03430749
0.026604233 -0.03317618 -0.0061228797 -0.03559929 0.059715938 -0.008596901 -0.022014003 -0.0339869
0.015807591 -0.02838203 -0.008048485 0.0378961 -0.005251507 -0.03147929 0.02820419 -0.008720515
-0.013778186 0.036346104 -0.0042577432 -0.017950239 0.0028077832 0.005118896 -0.024130087 -0.009154901
0.015426721 -0.019740034 -0.011269396 -0.04549567 -0.019489994 0.006854628 0.0069245403 -0.000719294
0.02625812 -0.004556725 -0.07214855 -0.029411094 0.007813895 0.026471252 -0.04277949 0.030595599
0.006331029 -0.01002385 0.049713027 0.04443198 -0.04877007 -0.0058594607 -0.015045416 -0.0077693206
0.016071698 -0.024964983 0.024782678 0.03379644 0.028375568 -0.015659437 0.021278799 -0.004900794
0.031188078 0.010678271 0.024026938 0.0024118253 0.018343654 0.041868698 0.03039632 -0.0038529714
-0.0067792 -0.014945028 -0.092580736 -0.001905594 -0.021401793 -0.041124843 0.043607656 -0.07483189
0.057071045 -0.060710214 -0.0059395814 -0.027896367 -0.03641101 -0.018982869 -0.011860468 -0.005228433
-0.02298323 -0.03632415 -0.0751039 0.03333724 0.038039427 -0.07703639 -0.03742191 -0.061055448
-0.046789046 -0.066189565 -0.010763602 -0.01884953 -0.050188586 0.05244671 -0.04944309 -0.07505748
0.044903036 -0.0821434 -0.031954315 -0.050346356 -0.07555577 -0.052348156 0.0075275693 -0.062112708
-0.07019398 0.018926337 -0.0854413 0.040079057 -0.054964773 -0.06562061 -0.040700324 0.004438477
-0.04772262 -0.021707315 -0.064138405 0.07006415 0.06164999 -0.06928949 0.03599705 -0.03563411
0.017639017 0.037706412 -0.01570031 -0.07758426 -0.066001505 -0.061859783 -0.045071278 -0.0059085814
0.071997076 -0.048351817 0.035761137 -0.00018784222 0.051950872 -0.025145242 0.005790536 -0.04734697
00000000: bde2 fc3c f8fe 30bd 6e13 dc3b ed32 a3bc
00000010: 8c17 f23c 8a34 733c 2555 ee3c 7e32 5b3d
00000020: 8234 123b 793b bebc b818 dc3c 33cc c1bb
00000030: 97eb ecbc 78a7 c53c 3080 2e3b 0bb3 c93c
00000040: 7ef8 d8bb 74b2 273c 9404 373d ce2f af3c
00000050: c154 bc3c 1101 563d 6663 7f3c 8e91 d93b
00000060: 3e38 02bc 9d6c 923c 52bf c53b 3c81 903c
00000070: 7d7e 83bd c0f1 81b8 7aa9 34bd c0db 18bd
00000080: f4d0 1b3d adfe 063c 1d73 f1bc 9322 e83b
00000090: acf4 743b 7a7c 933c fefd 803c 8548 6e3c
000000a0: 7b04 d6bb 7bf0 ab3c 2820 553c edb9 c1bc
000000b0: 2c38 50bc 9223 ab3c b023 443c 9c32 18bc
000000c0: 75da ae3b 7cdc 95bb f93a f93c c7b5 0a3d
000000d0: 0ffb 923c 9d55 c8bb e740 a939 79fe 303c
000000e0: d58f 5bba 0611 b0bc 77cb 683d 4958 8dbd
000000f0: cdfd 3abb b3cf 033d 4d45 fc3c 561a a5bb
00000100: 47bc 083d 1a14 bbbd cf8b f1bc 06dc 0c3d
00000110: 51de 3dbc ecb5 053c 9e3b fdbc 5119 9f3d
00000120: 8b63 b7bc 2ea7 cdbc b3eb 863c 4c18 9abb
00000130: 43e3 7b3c 8e26 023d 7345 debc bbdb 07bb
00000140: 4ea7 2ebd e234 c53c be84 12bd 7660 ef3a
00000150: f11f 983b 86f8 b93d 0498 c5bc cc61 033d
00000160: 8330 35bc cf5a 3abb 1a37 1d3d f193 2f3c
00000170: 922f 68bd 0d87 68bb 456c 2abd 5fe5 a0bd
00000180: 2e06 eaba 2b34 4dbc 6372 99bd ffb0 5ebb
00000190: 6683 8b3c 0c85 6a3c 741e f43b abae b1bc
000001a0: c629 3ebd 2bc9 413c 80aa 2b3c 7b56 203b
000001b0: 8c84 133a 8f84 b53c 9302 a1bc 68e0 25bd
000001c0: e255 4bbc eb77 f5b9 132d 743a 3d79 51bc
000001d0: 5b30 8e3a 1bfb 28bd 8552 febc 0386 0cbd
000001e0: 1ff1 d93c bfe3 07bd 70a2 c8bb 90d0 11bd
000001f0: b398 743d 04da 0cbc b656 b4bc d935 0bbd
00000200: ec7e 813c 6e81 e8bc cbdd 03bc f138 1b3d
00000210: d514 acbb 6ef0 00bd 790c e73c 7ee0 0ebc
00000220: e7bd 61bc a7df 143d 8a84 8bbb 610c 93bc
00000230: c902 383b 69bc a73b 76ac c5bc 70fe 15bc
00000240: 5cc0 7c3c dab5 a1bc 46a3 38bc ab59 3abd
00000250: 7ba9 9fbc ca9c e03b 41e7 e23b 018f 3cba
00000260: 451b d73c 9450 95bb 9ec2 93bd 89ef f0bc
00000270: da05 003c 3dda d83c 8c39 2fbd 9fa3 fa3c
00000280: 8574 cf3b 133b 24bc e39f 4b3d 4ffe 353d
00000290: 20c3 47bd b800 c0bb 0c81 76bc c995 febb
000002a0: cba8 833c 5d83 ccbc 0b05 cb3c 236e 0a3d
000002b0: e173 e83c 3848 80bc e050 ae3c d796 a0bb
000002c0: 247e ff3c eaf3 2e3c 24d4 c43c b70f 1e3b
000002d0: 6e45 963c 837e 2b3d b401 f93c 2282 7cbb
000002e0: 0d24 debb fedb 74bc f89a bdbd 20c5 f9ba
000002f0: d052 afbc 8672 28bd f19d 323d 7641 99bd
00000300: 54c3 693d 46ab 78bd d2a0 c2bb ec86 e4bc
00000310: b623 15bd f681 9bbc 6952 42bc 4653 abbb
00000320: 5447 bcbc a2c8 14bd 13d0 99bd a18c 083d
00000330: 3bcf 1b3d 41c5 9dbd b747 19bd 4715 7abd
00000340: dfa5 3fbd 658e 87bd d259 30bc 546a 9abc
00000350: 8c92 4dbd 5dd2 563d d684 4abd bcb7 99bd
00000360: 3fec 373d cd3a a8bd 87e2 02bd fb37 4ebd
00000370: fcbc 9abd 056b 56bd d4a9 f63b e569 7ebd
00000380: ddc1 8fbd 680b 9b3c d9fb aebd f029 243d
00000390: be22 61bd 1964 86bd 62b5 26bd a570 913b
000003a0: cb78 43bd 8ad3 b1bc ff5a 83bd cb7d 8f3d
000003b0: b384 7c3d a6e7 8dbd a571 133d 13f5 11bd
000003c0: b37f 903c 0a72 1a3d f09d 80bc 7fe4 9ebd
000003d0: cc2b 87bd af60 7dbd a99c 38bd c69c c1bb
000003e0: 3473 933d 8e0c 46bd 457a 123d 83f7 44b9
000003f0: 70ca 543d 65fd cdbc 89be bd3b e5ee 41bd

layers.2.bias f4 [128]
1.3450849 1.7390033 -1.3990202 -0.722872 0.3130441 -1.4123178 0.52535886 0.5043142
-1.9674854 1.2804505 1.2677382 -1.1260971 -0.72103745 0.9830871 -1.6599758 -0.31712443
-0.9439764 2.0850961 1.7264866 -0.22817475 -0.9697824 0.8702616 -2.911702 -2.8318894
-2.5538783 -0.93964714 -0.68140787 0.57870156 0.5729064 1.4661683 -0.5395368 -1.0461603
-1.0540257 2.3389928 -1.7253557 1.4264474 -0.4305183 2.7128694 1.1314018 0.7149471
0.6137337 -1.7627432 0.23222965 0.46121615 -0.6420164 0.8945521 0.25132424 1.3875849
-1.6958365 -0.7394549 0.23498724 -0.8329202 -2.092872 -0.53781784 0.1642996 0.96242684
0.32427523 -1.6247928 -1.7580849 0.91599715 0.37038735 3.752149 0.11021788 0.15523878
-0.34478146 0.32860917 0.3376617 0.44440114 -0.6097696 -1.0265702 0.35113633 1.0568957
-0.13525963 -0.6990773 -2.1610887 -2.7522411 1.6650655 0.51302266 0.38383704 -0.33308154
1.1448544 0.5499736 -0.20782676 -0.029080221 1.2464926 0.74145496 0.9238976 1.1925789
0.10075733 -0.4223175 -1.3217493 1.3952585 -0.15516168 0.032775298 -0.8449673 -0.2640627
2.8742259 1.3996763 -1.5477406 0.081464946 -1.8398769 -0.3881256 0.49385244 -0.5012796
-0.0062540085 0.51846653 -1.835032 1.6112192 -3.254407 1.0079238 0.54792756 -0.177145
0.4682303 -2.025007 -0.35940543 0.8533725 -0.12776105 -1.2860893 -0.38114226 -0.039412793
-0.3877422 -0.82063115 0.63420105 -0.31689337 0.71137935 -0.19334643 1.1343738 2.1782227
00000000: be2b ac3f a997 de3f 1813 b3bf 240e 39bf
00000010: 5147 a03e d4c6 b4bf eb7d 063f bc1a 013f
00000020: 90d6 fbbf cde5 a33f 3f45 a23f f323 90bf
00000030: e995 38bf 99ab 7b3f 167a d4bf 225e a2be
00000040: 70a8 71bf 3772 0540 83fd dc3f a4a6 69be
00000050: a943 78bf 77c9 5e3f 5359 3ac0 ad3d 35c0
00000060: be72 23c0 b78c 70bf bf70 2ebf c925 143f
00000070: fea9 123f 67ab bb3f 151f 0abf 95e8 85bf
00000080: 50ea 86bf 0fb2 1540 75d8 dcbf d495 b63f
00000090: e56c dcbe a79f 2d40 c6d1 903f c606 373f
000000a0: a71d 1d3f 92a1 e1bf 9ccd 6d3e 8624 ec3e
000000b0: 305b 24bf 5e01 653f 92ad 803e 629c b13f
000000c0: 2c11 d9bf eb4c 3dbf 7fa0 703e 423a 55bf
000000d0: 9df1 05c0 6eae 09bf 283e 283e 9b61 763f
000000e0: 6707 a63e 36f9 cfbf ed08 e1bf ca7e 6a3f
000000f0: 69a3 bd3e 3623 7040 e9b9 e13d eaf6 1e3e
00000100: 3287 b0be 763f a83e ffe1 ac3e 8c88 e33e
00000110: dc19 1cbf a766 83bf 24c8 b33e 5c48 873f
00000120: 8081 0abe bbf6 32bf 474f 0ac0 b824 30c0
00000130: de20 d53f 7455 033f 4a86 c43e aa89 aabe
00000140: 978a 923f 12cb 0c3f 8ad0 54be a539 eebc
00000150: 128d 9f3f fecf 3d3f 8e84 6c3f 6da6 983f
00000160: dc59 ce3d 003a d8be 152f a9bf d597 b23f
00000170: b4e2 1ebe 643f 063d c74f 58bf 3a33 87be
00000180: 51f3 3740 9828 b33f 5d1c c6bf 18d7 a63d
00000190: 1681 ebbf 66b8 c6be 3ada fc3e dc53 00bf
000001a0: 6dee ccbb 39ba 043f 54e2 eabf 6e3c ce3f
000001b0: 3448 50c0 a603 813f fb44 0c3f 8065 35be
000001c0: e2bb ef3e b799 01c0 fd03 b8be 9f76 5a3f
000001d0: cbd3 02be 939e a4bf 1425 c3be 4f6f 21bd
000001e0: 2586 c6be e214 52bf 005b 223f d93f a2be
000001f0: f51c 363f 9bfc 45be 2933 913f 0068 0b40

exp_avg f4 [64, 170]
0.00013903696 -3.5499193e-05 -0.00028004326 0.00011915269 -0.0004188861 -0.0003112483 -4.193897e-06 -0.00039693067
2.5983018e-05 -0.0003091278 -0.00027587914 -0.000316266 -0.00012430963 -0.0003742095 -8.302032e-05 -0.00020225675
-0.00021807502 6.858481e-05 9.0613175e-05 -0.0002643396 5.4366596e-05 0.00029701102 0.0003375666 -0.00019448219
-0.00011377384 -6.872066e-05 -9.8276505e-05 -2.600511e-05 -5.713256e-05 0.00013700598 -0.00018981255 -0.0004474056
0.000210582 -0.00032123076 -0.0003240123 8.877337e-05 -6.3569045e-05 -0.00023082636 -4.9254748e-05 1.2917675e-06
4.7322454e-05 0.0003091852 -0.00018516362 -4.7479396e-05 -0.00020552997 -5.1060233e-05 -4.8529044e-05 -0.00010806692
-7.3340554e-05 2.7410366e-05 -0.00023891105 6.731125e-05 -0.00021416131 -0.00034730308 -0.00046590218 7.3659765e-05
-0.0004252991 0.0002757927 -0.00041872825 0.0001256364 -7.625919e-05 -0.00010194392 -0.00042597673 0.00017737987
0.00040804796 0.00011986611 -0.00041342256 -0.0002982079 -5.4129094e-05 -0.00010393165 -0.000100450685 0.00015277434
-0.00021378598 -3.9147028e-05 0.00027886344 -0.00029041283 -7.141748e-05 0.00021963156 -8.479221e-05 0.0002633781
-0.00016075459 -0.00012180455 -7.4889955e-05 0.0001549518 -2.961843e-05 -7.514612e-05 0.0003565525 -0.00026718117
0.00023899508 -7.519696e-05 4.795435e-05 5.536822e-05 1.578539e-07 3.783232e-05 -0.00044166468 -5.8477253e-06
0.00024181216 7.564876e-05 0.00035504755 0.0002573089 -0.00013935937 -6.191753e-05 -2.328825e-05 -0.0001033517
-0.0003217216 -0.00011649139 -6.523736e-05 -0.00035397566 -0.00014091459 -0.00014557656 0.00024917792 9.228884e-05
-0.00035604314 0.0003018178 -0.0004127579 -3.764143e-05 -0.00034733143 -0.00011239522 -0.00041705085 0.00013587058
-0.0006320134 4.165349e-05 -0.00091084064 0.0004292474 -0.0002642649 6.427558e-05 -0.00052929216 -3.2151293e-05
-6.458025e-05 3.748979e-05 -0.0003993221 -0.00014462355 -0.0005179299 -8.947648e-05 -0.000140405 -2.110093e-06
-0.00032177844 0.00014832344 -0.00036373586 0.00042086965 -0.000318692 0.00032668613 -0.00028969478 -0.0004358518
-0.0001786644 -0.00032438658 -0.0003384675 0.00032800407 0.0003578106 4.400553e-05 -0.00037622522 -2.6272673e-05
3.7999896e-05 0.0002018836 -0.00021447342 0.0005721295 -8.592204e-05 -0.00045647577 0.0002340299 2.5066696e-05
-0.0002902394 8.78254e-07 0.00020539711 -6.0773524e-05 -0.00024067226 0.00033120147 -2.8488841e-05 -0.00040216633
-0.00013067952 3.631915e-05 0.000115063696 0.0011280384 0.0024967117 0.0005529691 0.0011246704 0.0016068493
0.0013026787 -0.00025910983 0.0016770875 -0.0009853336 -0.0011867798 -0.0013421769 0.0013512182 -0.00015466474
0.00037377368 0.0019070033 -0.0010009415 0.0020514806 -0.00018586329 0.0021282858 0.0012480934 0.0030127866
0.0008589006 -0.0009798267 0.0019870405 -2.9891342e-05 5.8101225e-05 0.0010689058 0.0009918261 -0.0003484498
0.00054556486 -0.000743623 0.001185048 0.0009951539 0.0012813322 0.0013015796 -0.00050610903 0.003469289
0.0016097763 0.0011551362 -3.5455898e-06 0.0038919477 0.0021994493 0.0032516227 0.00040519147 0.0013357885
0.0018965648 0.0026033635 0.00048491207 0.0007388811 0.002456276 0.0013963928 0.0008120184 -0.0008070141
0.0015699214 0.0020415115 0.00038774384 0.0006984677 0.0011172625 0.0011089281 0.0012832505 0.00044072545
0.0010619943 6.628608e-05 -0.00021671598 0.0011699133 0.00037415154 0.00038421855 0.0034223027 -0.0012709877
0.0024832 0.001945409 -0.0004380707 0.0017823844 0.001169815 0.0010691844 0.00071123225 0.000586165
0.0027184084 0.001989493 0.00057181966 0.0010029139 9.528533e-05 0.00059809006 0.00018332289 -0.00072505156
00000000: 73ca 1139 f8e4 14b8 c5d2 92b9 9de1 f938
00000010: f19d dbb9 0a2f a3b9 4db9 8cb6 221b d0b9
00000020: 1bf6 d937 6e12 a2b9 dfa3 90b9 81d0 a5b9
00000030: 1d59 02b9 8d31 c4b9 321b aeb8 e214 54b9
00000040: 11ab 64b9 31d5 8f38 9407 be38 0f97 8ab9
00000050: b007 6438 25b8 9b39 6cfb b039 eaed 4bb9
00000060: de99 eeb8 201e 90b8 cc19 ceb8 8c25 dab7
00000070: 9fa1 6fb8 43a9 0f39 6b08 47b9 c391 eab9
00000080: adcf 5c39 dd6a a8b9 32e0 a9b9 d72b ba38
00000090: 5f50 85b8 fb09 72b9 e296 4eb8 cb60 ad35
000000a0: 197c 4638 231a a239 7b28 42b9 9d24 47b8
000000b0: 8883 57b9 8229 56b8 aa8b 4bb8 fca1 e2b8
000000c0: 69ce 99b8 50ef e537 3284 7ab9 7429 8d38
000000d0: 7d90 60b9 3b16 b6b9 5544 f4b9 c979 9a38
000000e0: aefa deb9 4598 9039 c188 dbb9 44bd 0339
000000f0: 57ed 9fb8 baca d5b8 a155 dfb9 0cff 3939
00000100: 45ef d539 a160 fb38 a3c0 d8b9 c958 9cb9
00000110: ac08 63b8 e1f5 d9b8 0da9 d2b8 0d32 2039
00000120: bd2b 60b9 cd31 24b8 6b34 9239 8d42 98b9
00000130: f8c5 95b8 e64c 6639 79d2 b1b8 0316 8a39
00000140: 3b90 28b9 5271 ffb8 3d0e 9db8 8f7a 2239
00000150: 1875 f8b7 c497 9db8 abef ba39 7314 8cb9
00000160: c19a 7a39 0fb3 9db8 9722 4938 2c3b 6838
00000170: 8d7e 2934 25ae 1e38 3b8f e7b9 9437 c4b6
00000180: f58e 7d39 9ea5 9e38 ad25 ba39 6ae7 8639
00000190: ff20 12b9 b9d9 81b8 235b c3b7 85be d8b8
000001a0: beac a8b9 d74c f4b8 0ad0 88b8 cf95 b9b9
000001b0: 79c2 13b9 e9a5 18b9 18a4 8239 328b c138
000001c0: 4dab bab9 4d3d 9e39 6d67 d8b9 2de1 1db8
000001d0: 091a b6b9 b9b5 ebb8 9ea7 dab9 7b78 0e39
000001e0: b4ad 25ba 18b5 2e38 7bc5 6eba 9c0c e139
000001f0: 098d 8ab9 b0cb 8638 32c0 0aba 30da 06b8
00000200: 426f 87b8 5b3e 1d38 1b5c d1b9 17a6 17b9
00000210: b0c5 07ba 52a5 bbb8 ae39 13b9 1f9b 0db6
00000220: 5fb4 a8b9 4587 1b39 cdb3 beb9 2ba8 dc39
00000230: 1e16 a7b9 1247 ab39 2de2 97b9 0a83 e4b9
00000240: dc57 3bb9 6e12 aab9 5774 b1b9 f6f7 ab39
00000250: 8798 bb39 9492 3838 1840 c5b9 2364 dcb7
00000260: 1462 1f38 b7b0 5339 45e4 60b9 f6fa 153a
00000270: 0b31 b4b8 2453 efb9 ec65 7539 5246 d237
00000280: 462b 98b9 28c1 6b35 de5f 5739 13e7 7eb8
00000290: f85c 7cb9 1ca5 ad39 52fb eeb7 dad9 d2b9
000002a0: 0407 09b9 6455 1838 5a4e f138 b0da 933a
000002b0: df9f 233b 21f5 103a ad69 933a ea9c d23a
000002c0: a5be aa3a 22d9 87b9 b8d1 db3a 4f26 81ba
000002d0: b98d 9bba fceb afba 5c1b b13a 802d 22b9
000002e0: 0ef7 c339 6af4 f93a 0632 83ba 2272 063b
000002f0: 4ce4 42b9 b67a 0b3b 1197 a33a 2c72 453b
00000300: d827 613a 876d 80ba 0239 023b 2bbf fab7
00000310: b7b1 7338 871a 8c3a 2900 823a 24b0 b6b9
00000320: 3d04 0f3a b2ef 42ba 9d53 9b3a d36f 823a
00000330: 60f2 a73a c499 aa3a 67ac 04ba 035d 633b
00000340: 21ff d23a f067 973a c5f0 6db6 0c10 7f3b
00000350: a324 103b 2d19 553b e16f d439 a015 af3a
00000360: 2896 f83a 319d 2a3b cc3b fe39 79b1 413a
00000370: 79f9 203b 2b07 b73a a2dd 543a cd8d 53ba
00000380: d2c5 cd3a e1ca 053b 194a cb39 6019 373a
00000390: 1c71 923a 7459 913a be32 a83a 2b11 e739
000003a0: 9e32 8b3a 1103 8b38 413e 63b9 c757 993a
000003b0: c529 c439 f170 c939 b648 603b 4597 a6ba
000003c0: 2fbd 223b 18fd fe3a dbac e5b9 e59e e93a
000003d0: 7a54 993a e023 8c3a fd71 3a3a dea8 193a
000003e0: 5327 323b 2762 023b 2be6 153a 3574 833a
000003f0: ecd3 c738 25c9 1c3a 5d3a 4039 6311 3eba

exp_avg_sq f4 [64, 170]
1.8064457e-05 1.5153856e-05 2.1451688e-05 2.4258476e-05 1.7120854e-05 1.8127595e-05 2.0006111e-05 2.1536196e-05
8.617695e-06 8.097711e-06 1.584038e-05 1.9798721e-05 6.399736e-06 6.602888e-06 2.1531772e-05 2.2650314e-05
1.5188312e-05 1.13876085e-05 1.1350736e-05 1.17047075e-05 1.18810885e-05 6.8272e-06 9.321174e-06 8.576719e-06
1.31921715e-05 8.120348e-06 1.0940054e-05 1.10899055e-05 9.866122e-06 1.1712315e-05 1.1932513e-05 1.1783747e-05
1.4846177e-05 1.5509624e-05 7.4685836e-06 9.933737e-06 1.1399706e-05 1.1503637e-05 4.949185e-06 5.1336483e-06
1.0117719e-05 9.327587e-06 7.484667e-06 6.9096463e-06 4.803244e-06 5.9611057e-06 4.706077e-06 5.2142245e-06
8.946311e-06 1.4129534e-05 4.9822597e-06 5.2205073e-06 1.3200788e-05 1.7517481e-05 7.45532e-06 1.4856209e-05
1.507198e-05 1.8349669e-05 1.4945662e-05 1.8700019e-05 1.2661558e-05 1.3716515e-05 1.0841882e-05 1.2487045e-05
1.3376615e-05 1.4156747e-05 1.2423125e-05 9.137187e-06 1.5067767e-05 1.0711879e-05 2.215221e-05 1.7404194e-05
1.43083735e-05 1.5089233e-05 1.4939358e-05 1.35022965e-05 7.5328057e-06 7.858014e-06 9.454393e-06 7.600609e-06
5.0274084e-06 8.101781e-06 2.1464311e-06 2.688332e-06 2.735443e-06 5.0634567e-06 7.0769115e-06 8.506079e-06
6.4025903e-06 7.001089e-06 4.3053997e-06 6.9281605e-06 1.1791379e-05 1.4428725e-05 8.053547e-06 3.9038487e-06
1.1492918e-05 1.4013694e-05 6.780834e-06 1.0666418e-05 1.273176e-05 1.012263e-05 1.6968663e-05 1.6747857e-05
1.61277e-05 1.8609837e-05 9.518197e-06 1.2228866e-05 2.2339838e-05 1.590705e-05 1.79511e-05 1.3105035e-05
2.0396468e-05 1.3199018e-05 1.8421277e-05 1.05523095e-05 1.9081725e-05 1.5680824e-05 1.7229297e-05 1.3348645e-05
2.4332467e-05 2.1655653e-05 1.45950935e-05 1.6141737e-05 1.3962857e-05 1.6248914e-05 7.4358077e-06 1.0346326e-05
2.0905229e-05 2.0490812e-05 1.4422994e-05 1.7398837e-05 2.0789335e-05 2.9306111e-05 1.7281583e-05 2.3771587e-05
1.3322482e-05 1.6887963e-05 1.494754e-05 1.8076595e-05 1.738495e-05 2.5487867e-05 1.0698144e-05 1.8371931e-05
1.8636292e-05 2.8195902e-05 1.7836182e-05 2.3795143e-05 1.405918e-05 2.3150373e-05 1.9792002e-05 2.5764e-05
2.1455226e-05 2.0295076e-05 1.2414991e-05 2.059456e-05 1.9764524e-05 2.9639981e-05 7.910921e-06 1.0983994e-05
1.6791217e-05 2.056119e-05 1.939421e-05 1.935409e-05 2.1643544e-05 2.2949967e-05 2.4462382e-05 3.1730644e-05
1.3798201e-05 2.1497253e-05 1.2388324e-05 1.3925737e-05 2.448587e-05 2.948554e-05 1.9662446e-05 2.8476068e-05
2.9095345e-05 3.938987e-05 1.2932089e-05 1.5385207e-05 1.945489e-05 2.2165968e-05 1.3284586e-05 1.3767324e-05
1.9674006e-05 2.6196294e-05 1.5496258e-05 1.621545e-05 1.6542583e-05 1.5715608e-05 1.510206e-05 1.05951385e-05
1.5897735e-05 9.077003e-06 1.7984192e-05 1.3833335e-05 1.6250735e-05 1.4185085e-05 1.3546e-05 1.20992045e-05
1.720458e-05 1.2574941e-05 9.632217e-06 1.0126543e-05 7.749372e-06 9.690734e-06 1.065631e-05 1.7700613e-05
6.464999e-06 5.172944e-06 9.419459e-06 1.3508794e-05 1.0232638e-05 1.442298e-05 1.0387109e-05 1.3303644e-05
1.2708135e-05 1.7641154e-05 7.9243e-06 1.0827076e-05 1.0748105e-05 1.9604913e-05 8.669097e-06 1.2451502e-05
7.947555e-06 1.4110755e-05 8.620913e-06 1.3610627e-05 9.067785e-06 1.16976325e-05 5.978527e-06 9.885125e-06
5.166932e-06 4.9199843e-06 6.4754304e-06 9.840491e-06 4.272698e-06 5.305533e-06 1.1792125e-05 1.2012411e-05
1.6497595e-05 1.5209787e-05 1.3755539e-05 1.4035109e-05 1.7453824e-05 1.5984153e-05 1.4867487e-05 1.6694454e-05
2.0434894e-05 2.0959147e-05 1.34927495e-05 1.7863922e-05 7.6339875e-06 1.1958217e-05 1.098644e-05 1.2772218e-05
00000000: 2089 9737 513d 7e37 26f3 b337 ae7e cb37
00000010: c19e 8f37 b710 9837 ccd2 a737 a1a8 b437
00000020: b894 1037 67db 0737 f5e0 8437 6e15 a637
00000030: 50bd d636 608e dd36 219f b437 2e01 be37
00000040: 4ed1 7e37 680d 3f37 0a6f 3e37 565f 4437
00000050: e354 4737 3415 e536 2362 1c37 bae4 0f37
00000060: f253 5d37 a13c 0837 2d8b 3737 c80e 3a37
00000070: ac86 2537 0380 4437 c131 4837 cfb2 4537
00000080: d813 7937 aa1a 8237 a59a fa36 13a9 2637
00000090: 5d41 3f37 bfff 4037 2d11 a636 b441 ac36
000000a0: 46bf 2937 ae7d 1c37 cd24 fb36 69d9 e736
000000b0: 8d2b a136 8205 c836 e5e8 9d36 d9f5 ae36
000000c0: 1d18 1637 e30d 6d37 492d a736 d12b af36
000000d0: f478 5d37 81f2 9237 b628 fa36 ef3e 7937
000000e0: a9dd 7c37 9ded 9937 21bf 7a37 fcdd 9c37
000000f0: fa6c 5437 fc1f 6637 87e5 3537 737f 5137
00000100: 206c 6037 c482 6d37 ea6c 5037 eb4b 1937
00000110: 91cb 7c37 2cb7 3337 82d3 b937 39ff 9137
00000120: ff0d 7037 c327 7d37 0ea4 7a37 ec87 6237
00000130: 4fc2 fc36 ead5 0337 4f9e 1e37 bc08 ff36
00000140: 1cb1 a836 e2ec 0737 680b 1036 3169 3436
00000150: 8e92 3736 c3e6 a936 3576 ed36 55b5 0e37
00000160: d5d5 d636 e6ea ea36 1a77 9036 7278 e836
00000170: 96d3 4537 e712 7237 b91d 0737 cefd 8236
00000180: b5d1 4037 5c1c 6b37 ec86 e336 ebf3 3237
00000190: 7e9a 5537 5dd4 2937 ed57 8e37 c07d 8c37
000001a0: f949 8737 521c 9c37 58b0 1f37 942a 4d37
000001b0: 7066 bb37 2170 8537 b295 9637 b2dd 5b37
000001c0: 1519 ab37 5a71 5d37 6487 9a37 d309 3137
000001d0: b111 a037 508a 8337 a287 9037 fef3 5f37
000001e0: 931d cc37 29a9 b537 73dd 7437 1e68 8737
000001f0: 0442 6a37 474e 8837 1a81 f936 2295 2d37
00000200: a35d af37 afe3 ab37 4afa 7137 b8f3 9137
00000210: c264 ae37 65d6 f537 ebf7 9037 1869 c737
00000220: a083 5f37 a0aa 8d37 32c7 7a37 31a3 9737
00000230: e5d5 9137 c7ce d537 2e7c 3337 6c1d 9a37
00000240: 2255 9c37 3d86 ec37 e99e 9537 ae9b c737
00000250: b8df 6b37 0c33 c237 0007 a637 c51f d837
00000260: bffa b337 583f aa37 fb49 5037 7bc2 ac37
00000270: fecb a537 60a3 f837 26b9 0437 e547 3837
00000280: ddda 8c37 d27a ac37 c0b0 a237 985a a237
00000290: 288f b537 ae84 c037 9134 cd37 8516 0538
000002a0: d27e 6737 0055 b437 72d7 4f37 96a2 6937
000002b0: 0167 cd37 b757 f737 c8f0 a437 e4df ee37
000002c0: c711 f437 8d36 2538 e6f6 5837 7b0f 8137
000002d0: 0f33 a337 0ef1 b937 dde0 5e37 35fa 6637
000002e0: 9b09 a537 1dc0 db37 f6fd 8137 6a06 8837
000002f0: edc4 8a37 03d5 8337 db5e 7d37 c6c1 3137
00000300: 205c 8537 6e49 1837 c2dc 9637 b915 6837
00000310: 3052 8837 7afc 6d37 a143 6337 b0fd 4a37
00000320: 8e52 9037 f6f8 5237 0f9a 2137 2ce5 2937
00000330: 4d03 0237 6395 2237 81c8 3237 c77b 9437
00000340: ebed d836 4093 ad36 4508 1e37 d4a3 6237
00000350: d8ac 2b37 3afa 7137 4b44 2e37 b732 5f37
00000360: 0635 5537 17fc 9337 9cf2 0437 f0a5 3537
00000370: c252 3437 3b75 a437 7d71 1137 cbe6 5037
00000380: 7d56 0537 3bbd 6c37 8aa2 1037 3359 6437
00000390: d721 1837 f340 4437 289b c836 4ad8 2537
000003a0: 9c5f ad36 5816 a536 8647 d936 9618 2537
000003b0: 325e 8f36 2e06 b236 cbd6 4537 ea88 4937
000003c0: 5164 8a37 8a2d 7f37 97c7 6637 5678 6b37
000003d0: cd69 9237 b515 8637 5f6f 7937 110b 8c37
000003e0: 9a6b ab37 6dd1 af37 eb5e 6237 7bda 9537
000003f0: ba13 0037 27a0 4837 6752 3837 4248 5637

exp_avg f4 [64]
1.1399333e-05 0.00036173707 0.0005261475 -0.0004491808 -0.00091520115 -0.00024386121 -0.0004045632 0.001591897
-0.00028780222 0.0005378231 0.00049381005 0.0001876242 0.000441254 0.0010866617 -0.00012472774 -0.0018208952
-0.0018438671 0.0002586389 0.0013198598 -0.00065045594 3.742681e-05 -0.00030803887 0.0012271057 0.00032419103
0.00081564585 -0.00050039426 0.00045814962 7.344731e-05 -0.0007288999 -0.00015810484 0.00073856197 -0.0009810174
-7.9002086e-05 0.00044384104 0.00024039329 -0.00022030613 -0.00014608035 -0.0005478549 0.0011112374 0.0016327604
0.0005284146 -0.000453818 -0.0012061696 -3.1723564e-05 0.00038210503 -0.0006419127 0.0010711137 -0.0008055005
1.3813347e-05 -0.00065806217 -0.00036817655 -2.3351286e-05 -7.21439e-05 -0.00085932226 0.00025760639 -6.256797e-05
1.5427744e-05 0.00044697282 -5.8008685e-05 8.9337516e-07 -0.00041392967 -0.0006815781 -8.803429e-05 0.00044662828
00000000: c33f 3f37 87a7 bd39 29ed 093a 0780 ebb9
00000010: 1cea 6fba ffb4 7fb9 8e1b d4b9 33a7 d03a
00000020: 29e4 96b9 b3fc 0c3a 0873 013a fdbc 4439
00000030: 1c58 e739 516e 8e3a 59c9 02b9 1bab eeba
00000040: eaad f1ba ed99 8739 25ff ac3a 5c83 2aba
00000050: bbfa 1c38 4780 a1b9 d6d6 a03a 2ff8 a939
00000060: 11d1 553a e42c 03ba cd33 f039 b907 9a38
00000070: a513 3fba f2c8 25b9 0e9c 413a 7b95 80ba
00000080: ecad a5b8 56b3 e839 1512 7c39 fa01 67b9
00000090: 252d 19b9 ec9d 0fba f1a6 913a 5902 d63a
000000a0: 4e85 0a3a 6cee edb9 5618 9eba eb0e 05b8
000000b0: 4555 c839 0846 28ba 9d64 8c3a 3928 53ba
000000c0: e0bf 6737 ce81 2cba d207 c1b9 81e2 c3b7
000000d0: f64b 97b8 2444 61ba 580f 8739 ec36 83b8
000000e0: d46a 8137 ad57 ea39 5a4e 73b8 46d0 6f35
000000f0: b304 d9b9 efab 32ba 0d9f b8b8 6f29 ea39

exp_avg_sq f4 [64]
3.332303e-06 5.231869e-06 3.2649452e-06 1.1108979e-05 7.5972407e-06 4.234326e-06 1.9241492e-05 7.369606e-06
5.6341814e-06 8.898231e-06 1.1864321e-05 2.2558743e-05 8.0104055e-06 8.279095e-06 3.8002204e-06 5.846647e-06
9.6753e-06 3.5103349e-06 1.44551395e-05 5.114083e-06 1.5125738e-05 6.3868656e-06 8.695672e-06 2.5126745e-05
9.858335e-06 2.5966034e-05 5.1515226e-06 8.236038e-06 3.0369412e-05 9.044148e-06 6.0128277e-06 1.6902675e-05
2.0348252e-05 3.627385e-06 3.577799e-05 1.1102333e-05 5.554698e-06 1.3190289e-05 6.0491257e-06 2.0302141e-05
1.0937792e-05 9.683354e-06 3.8895636e-05 2.3231027e-05 4.51469e-06 1.8067836e-05 1.4143552e-05 7.5355474e-06
2.2232269e-05 7.217897e-06 7.998105e-06 6.0405414e-06 2.7969234e-06 9.571954e-06 1.6342929e-05 6.232442e-06
1.1135451e-06 8.770949e-06 2.5336116e-05 2.891266e-06 8.426928e-06 6.083957e-06 6.11588e-06 6.6628286e-06
00000000: 88a0 5f36 6a8d af36 551b 5b36 b460 3a37
00000010: cdeb fe36 9514 8e36 ca68 a137 6f48 f736
00000020: 400d bd36 9c49 1537 df0c 4737 883c bd37
00000030: 6e64 0637 71e6 0a37 4a07 7f36 512e c436
00000040: 1953 2237 1893 6b36 5a84 7237 a399 ab36
00000050: 8dc4 7d37 c24e d636 a0e3 1137 46c7 d237
00000060: 3a65 2537 a2d1 d937 3edb ac36 842d 0a37
00000070: d1c1 fe37 52bc 1737 ccc1 c936 38ca 8d37
00000080: 8ab1 aa37 006e 7336 5310 1638 2844 3a37
00000090: 7e62 ba36 dc4b 5d37 98f9 ca36 844e aa37
000000a0: 7581 3737 b075 2237 df23 2338 40e0 c237
000000b0: e47c 9736 6290 9737 184a 6d37 dcd9 fc36
000000c0: 6f7f ba37 4331 f236 992f 0637 dbaf ca36
000000d0: c7b2 3b36 3b97 2037 2c18 8937 4520 d136
000000e0: 1e75 9535 f026 1337 e588 d437 9207 4236
000000f0: 6161 0d37 cb24 cc36 0237 cd36 4391 df36

exp_avg f4 [64, 64]
-0.0014346712 0.0023404737 -0.0037422886 0.00035083754 -0.0017925325 -0.002322235 -0.0012693191 0.0012903825
-0.0022514272 0.0056047332 -0.0010631558 -0.001925769 0.00090832444 -0.0046488233 -0.00011278205 0.00018286177
-0.00031288003 -0.00024351483 0.0018272651 -0.0004923848 -0.0012973042 -0.0020081645 -0.0013083719 -0.0005735114
-0.0011027266 -0.00015882011 -0.00043567913 -0.0010410553 0.003810611 -0.0010875012 7.5638222e-06 0.00041317125
-0.0013404145 0.00019963435 -0.0017233338 0.0040736827 0.00074074575 -0.0018061497 0.0031169476 -0.0011078453
-0.0010380195 0.0012601493 0.004172442 -0.0016892146 -0.0017907958 -0.0014948699 -0.0024445604 -0.0011071668
-0.00035015776 0.0015927968 -0.0004664443 -0.001402945 -0.0017838775 0.0019231142 -0.0019018649 0.0012268821
-0.0024566806 0.0006536144 -0.0021813728 -0.00062313216 -0.0006339396 -0.00086041784 -0.0010696771 0.0014383978
-0.0013871015 0.00017314631 0.0036478946 -0.000919951 0.00035898303 0.0013059002 0.00014606326 -0.0009162936
5.013222e-05 -9.455802e-05 0.0010249553 -0.0012890906 -0.0014192405 -0.0008437992 -0.0010644066 -0.001769455
-0.002751804 -0.0012646181 -0.00042297758 0.000610946 0.0009176625 0.0014810947 0.0009042926 -0.0011613913
-0.0009502227 0.004744231 -0.0024139616 -0.00039975435 0.0033694913 -0.00017950269 -0.00042262 0.00056588673
0.0011915509 -0.0008228487 -0.0011215751 7.364769e-05 -0.00113357 -0.0019713612 -0.00016185582 -0.001385761
-0.0006571846 -0.00040425305 0.002288848 -0.00037689027 -0.00055018713 -0.00074436306 0.00052963244 0.0005252325
-0.001228798 0.00039145004 0.00075702637 0.0028684833 -0.0006473018 -0.002257791 -0.000648874 0.00067333534
0.002769683 -0.0010695771 0.0003148585 0.00019243272 -0.0011700315 -0.0013497205 -0.0012098938 -0.001897975
0.00064738764 0.00062656146 0.002836351 -0.0023728395 0.00037203115 0.0010005693 -0.0018564533 -0.0001161775
0.0004796967 0.0008994596 0.00050619774 0.00082198484 -0.00032866758 0.0014923424 -0.0006657537 -0.00045976843
-0.0040822746 0.0012408629 -0.00040067095 -0.0011578981 0.0001423591 0.001957268 0.0009661457 0.0006710166
0.0006285163 8.26974e-05 -0.0013058526 0.001166019 -0.0033116655 0.0008618446 -0.00020656938 -0.0011736457
0.0008511232 0.0003055862 0.00017142075 -0.00014247357 -0.0010925806 0.00040499092 -0.0025814394 -0.0004704846
0.0003765802 -0.0010949217 -0.004438069 0.0003680259 0.00086220255 0.00094725384 0.0008391803 0.0010795702
-0.00048634785 -0.0005855679 0.0012293372 0.0010327493 0.0005623926 -0.0012007818 0.0008756689 0.002340619
6.0704883e-06 -0.00012401894 0.0006866923 0.0004415247 0.00084341835 0.00064627954 0.00015819696 0.0015670669
0.00031127507 -5.792394e-05 -8.6821994e-05 -0.00026465856 -0.0002980863 0.0006824829 0.0011846724 -0.0001863771
-0.0007713145 -0.0006898595 3.298068e-05 0.0013242012 -0.00023567314 0.00013550163 -0.00067392265 0.0008444344
0.0013917066 0.0002701572 0.0016881202 -0.0011416349 -0.00030882904 0.00094205805 0.0009343659 0.0010147305
0.001271728 -0.00012708279 -0.0012902053 0.00027760552 -0.00044261955 0.000933558 -0.0004817824 -0.0010411369
0.0006283215 -0.000305861 0.00052393466 -0.0027358625 -0.00015975596 0.00020475291 -0.00095748354 0.00020177728
0.00026455458 -0.0013616261 -0.0003780168 0.00058273005 -0.00012372153 0.00038061722 0.00045786842 -0.00027132145
0.00022240524 -0.0024587507 -0.0033347239 -0.0008101027 -0.00028233635 -0.0008017333 0.00055070495 0.001361709
-0.0005269225 0.00024550568 0.0004000923 0.00020033494 5.695972e-05 -0.00052859966 -9.538879e-05 -0.00072874146
00000000: 940b bcba a262 193b 2f41 75bb 9ef0 b739
00000010: 69f3 eaba a330 18bb 485f a6ba 0d22 a93a
00000020: ae8c 13bb e9a7 b73b 9759 8bba 166a fcba
00000030: 9f1c 6e3a 2855 98bb 6785 ecb8 95be 3f39
00000040: 0c0a a4b9 0458 7fb9 d880 ef3a 6213 01ba
00000050: 4e0a aaba 699b 03bb ad7d abba b357 16ba
00000060: 5d89 90ba f388 26b9 dd6b e4b9 0574 88ba
00000070: 72bb 793b 7c8a 8eba bdcc fd36 e89e d839
00000080: d9b0 afba f054 5139 7de1 e1ba 877c 853b
00000090: 9b2e 423a 54bc ecba b445 4c3b 1f35 91ba
000000a0: 280e 88ba 982b a53a fbb8 883b a368 ddba
000000b0: 23b9 eaba 83ef c3ba eb34 20bb 5a1e 91ba
000000c0: 6195 b7b9 64c5 d03a 188d f4b9 06e3 b7ba
000000d0: ffd0 e9ba 0111 fc3a ff47 f9ba 55cf a03a
000000e0: 4300 21bb 5257 2b3a 5df5 0ebb b159 23ba
000000f0: f72e 26ba aa8d 61ba 6834 8cba 9f88 bc3a
00000100: 67cf b5ba 9c8e 3539 8411 6f3b de28 71ba
00000110: e335 bc39 bd2a ab3a 8f28 1939 6c33 70ba
00000120: 1045 5238 734d c6b8 cb57 863a b4f6 a8ba
00000130: cf05 baba 6832 5dba 8f83 8bba 0fed e7ba
00000140: 9c57 34bb 8bc1 a5ba 17c3 ddb9 e427 203a
00000150: 4a8f 703a 4b21 c23a 0d0e 6d3a d339 98ba
00000160: 5e18 79ba 7e75 9b3b 8e33 1ebb 1f96 d1b9
00000170: afd2 5c3b e338 3cb9 1993 ddb9 0458 143a
00000180: d02d 9c3a 71b4 57ba d101 93ba 4d73 9a38
00000190: 4c94 94ba f431 01bb d7b7 29b9 6ca2 b5ba
000001a0: e946 2cba edf1 d3b9 7f00 163b 5b99 c5b9
000001b0: 6f3a 10ba 5c21 43ba 08d7 0a3a c2af 093a
000001c0: 9e0f a1ba 893b cd39 2e73 463a 2afd 3b3b
000001d0: b0af 29ba 73f7 13bb 3219 2aba c582 303a
000001e0: 9283 353b 0d31 8cba 9813 a539 c4c7 4939
000001f0: be5b 99ba 1be9 b0ba 4d95 9eba 79c5 f8ba
00000200: 73b5 293a d43f 243a 13e2 393b a481 1bbb
00000210: 2d0d c339 8925 833a 3c54 f3ba 52a4 f3b8
00000220: cd7f fb39 b6c9 6b3a 5bb2 043a 787a 573a
00000230: 0451 acb9 b49a c33a f985 2eba 130d f1b9
00000240: 9ac4 85bb 73a4 a23a 2511 d2b9 9dc4 97ba
00000250: 3b46 1539 8245 003b f144 7d3a 29e7 2f3a
00000260: 04c3 243a d46d ad38 2429 abba 1bd5 983a
00000270: 8708 59bb 69ed 613a 8c9a 58b9 04d5 99ba
00000280: e91d 5f3a 1637 a039 68bf 3339 f564 15b9
00000290: ec34 8fba f654 d439 5e2d 29bb 60ab f6b9
000002a0: bd6f c539 7a83 8fba 396d 91bb 9af3 c039
000002b0: 6f05 623a 2151 783a 70fc 5b3a 5d80 8d3a
000002c0: 81fc feb9 cc80 19ba b621 a13a 515d 873a
000002d0: 876d 133a 8d63 9dba 258d 653a 1265 193b
000002e0: 19b1 cb36 150b 02b9 2403 343a 717c e739
000002f0: d918 5d3a 166b 293a ace1 2539 0a66 cd3a
00000300: a232 a339 5bf3 72b8 3414 b6b8 dfc1 8ab9
00000310: 7748 9cb9 a7e8 323a 0247 9b3a 396e 43b9
00000320: 0a32 4aba b0d7 34ba bc54 0a38 d290 ad3a
00000330: 071f 77b9 7115 0e39 2faa 30ba 095d 5d3a
00000340: ed69 b63a e3a3 8d39 ea43 dd3a e9a2 95ba
00000350: 55ea a1b9 72f4 763a 3cf0 743a b500 853a
00000360: 1cb0 a63a 8741 05b9 1b1c a9ba 958b 9139
00000370: 640f e8b9 04ba 743a bd97 fcb9 c276 88ba
00000380: f1b5 243a f85b a0b9 a958 093a 284c 33bb
00000390: 2a84 27b9 f1b2 5639 a2ff 7aba 2d94 5339
000003a0: eab3 8a39 9778 b2ba 8e30 c6b9 5ac2 183a
000003b0: 3fbb 01b9 948d c739 0f0e f039 2640 8eb9
000003c0: 7435 6939 fe22 21bb 628b 5abb 125d 54ba
000003d0: 8b06 94b9 692b 52ba 2f5d 103a 5f7b b23a
000003e0: 2c21 0aba 37b7 8039 7bc3 d139 0011 5239
000003f0: 09e8 6e38 b991 0aba 770b c8b8 0309 3fba
